notebooks/models/saved_models/PriceForecasting_A3TGCN.pt (torch, 30651 bytes, 22 tensors)

cells.0.gcn.convs.0.bias f4 [16]
0.021185804 -0.08654882 -0.010734797 -0.09003425 -0.0947719 0.06915854 -0.0686215 -0.06445635
0.03598935 0.029237323 -0.02626547 0.032041874 -0.08165003 -0.03174995 0.024889486 0.0128715355
00000000: da8d ad3c 8240 b1bd 01e1 2fbc e063 b8bd
00000010: c517 c2bd fea2 8d3d 6e89 8cbd b101 84bd
00000020: 9269 133d 1c83 ef3c af2a d7bc 573e 033d
00000030: 2238 a7bd 3c0c 02bd 09e5 cb3c 22e3 523c

cells.0.gcn.convs.0.lin.weight f4 [16, 8]
-0.030397432 -0.016554644 -0.07517112 0.039770637 0.23513193 -0.14182012 0.14865132 -0.02384024
-0.09966849 0.18339974 0.26111004 0.016102754 0.17755324 -0.17518799 -0.21031328 -0.24342462
0.32888728 -0.285556 -0.24193183 0.37853548 0.010797205 0.08285997 -0.29361305 -0.3522555
-0.056682404 0.04366008 -0.093878485 -0.042714022 0.059954833 0.1904888 -0.03797114 -0.40655935
0.052828126 -0.0802198 -0.1378608 -0.32925394 -0.23408186 0.12985355 0.001036555 -0.37547636
-0.004289376 0.09638553 0.1568667 0.13808402 0.13578168 -0.12948991 0.2392351 -0.11263297
0.07374868 -0.07383819 -0.040501792 -0.0015130755 0.16205347 -0.09941262 -0.10778253 0.044820298
-0.07887527 -0.30474856 -0.3345891 -0.19393592 -0.2987733 0.26535246 0.10775668 0.3131185
-0.27635688 0.16996272 -0.29495874 0.4218551 0.14100306 0.050555915 -0.079608195 -0.10090111
0.27788308 0.32259205 0.019843047 0.0021673914 0.0661576 -0.19313402 -0.21246995 -0.2395466
0.3741174 -0.11098031 0.3073894 0.21481082 -0.059262376 0.27225274 -0.3373306 0.38966003
-0.06017223 -0.44078368 -0.13980997 0.081377536 -0.14069094 -0.0039237696 -0.11627883 -0.17222454
0.03722279 -0.018253433 -0.18911475 0.12042806 -0.15368973 0.13668527 -0.020122794 -0.24254102
-0.3706679 -0.10940575 -0.24986157 -0.22472173 0.13671452 -0.039028436 -0.19702716 -0.25424337
0.20737843 0.23045821 -0.21685503 -0.28123772 -0.13424209 0.3207752 0.065246694 0.34689313
-0.5245921 -0.1473778 -0.071103394 0.31435147 0.32375494 -0.2356841 0.41039795 0.33887336
00000000: 0904 f9bc 9b9d 87bc 51f3 99bd 89e6 223d
00000010: 6dc6 703e 4b39 11be 0d38 183e 9b4c c3bc
00000020: fe1e ccbd 24cd 3b3e 37b0 853e ece9 833c
00000030: 84d0 353e 7b64 33be 5d5c 57be 4e44 79be
00000040: ea63 a83e 6534 92be fabc 77be 67cf c13e
00000050: c3e6 303c 7db2 a93d 7354 96be d55a b4be
00000060: cf2b 68bd e9d4 323d 5d43 c0bd e6f4 2ebd
00000070: 3393 753d 7f0f 433e a087 1bbd 8c28 d0be
00000080: 4e62 583d 474a a4bd 622b 0dbe f993 a8be
00000090: 28b3 6fbe 54f8 043e 04dd 873a 703e c0be
000000a0: e58d 8cbb c765 c53d aaa1 203e e665 0d3e
000000b0: 5a0a 0b3e 0199 04be 0cfa 743e 1dac e6bd
000000c0: 8c09 973d 7a38 97bd 35e5 25bd 6452 c6ba
000000d0: 58f1 253e d898 cbbd 16bd dcbd 7d95 373d
000000e0: 5c89 a1bd 0108 9cbe 434f abbe 2397 46be
000000f0: d0f8 98be 47dc 873e 89af dc3d 1151 a03e
00000100: a67e 8dbe b50a 2e3e d504 97be 64fd d73e
00000110: 1b63 103e b813 4f3d 9f09 a3bd 3ea5 cebd
00000120: b146 8e3e c92a a53e e38d a23c cb0a 0e3b
00000130: a37d 873d edc4 45be b991 59be b44b 75be
00000140: 518c bf3e a549 e3bd 2562 9d3e 5ef7 5b3e
00000150: 1bbd 72bd b664 8b3e 99b6 acbe 8581 c73e
00000160: 2877 76bd 66ae e1be 582a 0fbe 44a9 a63d
00000170: 4911 10be f792 80bb 9823 eebd a15b 30be
00000180: ed76 183d 3988 95bc 4ca7 41be fda2 f63d
00000190: d760 1dbe 39f7 0b3e 8fd8 a4bc ac5c 78be
000001a0: 2fc8 bdbe 1f10 e0bd b6db 7fbe 741d 66be
000001b0: e4fe 0b3e 48dc 1fbd 7dc1 49be 302c 82be
000001c0: 035b 543e 3dfd 6b3e 3f0f 5ebe 64fe 8fbe
000001d0: c276 09be a63c a43e 0fa0 853d fa9b b13e
000001e0: ab4b 06bf 35ea 16be a89e 91bd adf2 a03e
000001f0: 35c3 a53e 2c57 71be ae1f d23e cf80 ad3e

cells.0.gcn.convs.1.bias f4 [16]
0.09202223 0.021523798 0.0116838785 0.01568944 -0.07270572 -0.051253192 0.0128714945 0.07798358
0.059309833 -0.029512728 -0.052300908 0.042178717 0.010569829 0.008091681 -0.04338603 -0.02313149
00000000: 2776 bc3d ad52 b03c bd6d 3f3c 2487 803c
00000010: bde6 94bd deee 51bd f6e2 523c dbb5 9f3d
00000020: deee 723d adc4 f1bc 7a39 56bd 97c3 2c3d
00000030: 132d 2d3c f892 043c 8db5 31bd 407e bdbc

cells.0.gcn.convs.1.lin.weight f4 [16, 16]
0.13472262 0.027709464 -0.0432333 0.028532777 -0.13692594 0.22229159 -0.14284924 0.004057742
0.06319113 -0.1240692 0.28512156 0.2813377 -0.20687433 0.028757904 0.056959555 0.26954773
0.013282991 -0.17733645 0.22187169 -0.046955235 -0.19111006 -0.14755064 0.18290417 0.082878284
0.006766565 0.14699969 0.19978024 0.21860063 0.17528728 0.31981507 -0.14827189 -0.29526356
-0.22947481 0.03223599 -0.2597808 -0.30633813 0.2616901 0.36213934 -0.036794435 -0.13596019
-0.055713516 -0.057085093 -0.24956645 -0.025658922 0.13345508 0.18200801 -0.22985312 0.34614235
0.15346858 0.020781904 -0.024374135 -0.055081233 -0.24328306 -0.30059716 0.11988874 0.0076461337
-0.0063984636 -0.08592322 0.16092394 -0.115669034 -0.083520785 -0.07775876 -0.16885164 0.29295337
-0.26464224 0.05082876 0.037327874 0.15784156 -0.016683996 0.03153494 0.0557449 -0.13449788
0.09002758 0.1526735 0.24967287 -0.14717911 -0.109153755 -0.41615608 0.004764187 -0.11811941
0.017728863 -0.19601646 0.17267106 -0.003966543 -0.2854367 -0.14382637 -0.21449506 0.2482597
-0.2425409 0.34320265 -0.080410704 0.059376407 0.16389553 0.09133917 -0.1600954 -0.22425582
-0.068891115 0.14132018 0.30134684 -0.061002597 0.31018174 -0.20845036 -0.3314943 -0.34844482
-0.23209469 -0.28154442 -0.08457384 0.20606881 0.16867119 0.10193951 0.22348385 -0.2759213
-0.026235878 -0.06142122 0.011475041 -0.119423755 -0.22466971 -0.055141885 0.15882279 0.09515524
-0.3455297 0.13057159 0.12449919 -0.04956745 -0.1785232 0.23809645 -0.2052041 -0.053167112
0.1641613 0.11501513 0.14927724 -0.2571716 0.012027596 0.2691067 -0.16445209 -0.25114006
-0.020741211 0.09625604 0.3347986 -0.37785634 -0.13799883 0.29521504 0.100995176 -0.12138304
0.015221593 0.062891535 0.07632953 0.02869956 0.3421704 -0.22801073 -0.052175704 -0.318336
-0.2427895 -0.3379861 -0.2266497 0.26730213 -0.30684236 -0.3055533 0.118765645 -0.30913493
0.0404339 0.20574038 0.10952245 0.19500236 0.05733319 0.049237046 -0.111864135 0.13664035
-0.12550783 -0.13612646 0.24422424 0.20574196 0.14556724 -0.27207318 -0.18412633 0.11903366
-0.1786449 -0.07592672 -0.22748823 0.17984842 -0.3204522 -0.32003942 0.0056737717 0.37841278
0.23902342 0.005861321 -0.34458736 0.20771842 0.11588842 -0.009646224 -0.34376088 0.19263318
0.21822207 -0.13022818 -0.14262216 0.24338229 -0.12197052 0.21627748 -0.042720422 0.34398758
0.15884519 0.2602429 0.11492351 0.14745763 -0.20666565 0.37811914 0.16689432 -0.2075108
-0.18147403 -0.23882751 -0.023918161 0.097673334 0.14884463 0.17221306 0.01362406 -0.21196875
-0.062581696 0.04922107 -0.086900085 0.0645802 -0.06749424 0.15005027 0.4351414 -0.024279771
-0.24637447 0.271552 -0.34531066 -0.1639973 0.38802686 -0.0901752 0.13876945 0.2516407
0.10131487 0.33353242 -0.22115023 -0.066473864 -0.16252649 -0.16599289 -0.17656703 0.275009
0.038730387 -0.21023127 -0.2562794 -0.032485396 -0.07016546 -0.14866999 -0.011936922 0.35611653
0.10585991 -0.12931244 0.25904477 0.20817061 0.07925089 -0.19747128 -0.2906712 -0.27223396
00000000: baf4 093e f5fe e23c 6715 31bd 92bd e93c
00000010: 5036 0cbe 68a0 633e 1247 12be cff6 843b
00000020: 5a6a 813d fe17 febd 74fb 913e 7f0b 903e
00000030: ddd6 53be b295 eb3c 6c4e 693d 2902 8a3e
00000040: e7a0 593c b097 35be 5532 633e 2254 40bd
00000050: 5bb2 43be 8417 17be 3b4b 3b3e 17bc a93d
00000060: 10ba dd3b 1687 163e 3193 4c3e d8d8 5f3e
00000070: 827e 333e cdbe a33e 96d4 17be c92c 97be
00000080: 72fb 6abe e309 043d fd01 85be 5ad8 9cbe
00000090: 3ffc 853e 546a b93e c3b5 16bd 2639 0bbe
000000a0: db33 64bd 0fd2 69bd 598e 7fbe a932 d2bc
000000b0: 73a8 083e 4f60 3a3e 9e5e 6bbe 9239 b13e
000000c0: de26 1d3e d03e aa3c 44ac c7bc dc9c 61bd
000000d0: 321f 79be dfe7 99be 3a88 f53d 6b8c fa3b
000000e0: 34aa d1bb 83f8 afbd 3fc9 243e e3e3 ecbd
000000f0: f20c abbd fc3f 9fbd 72e7 2cbe fcfd 953e
00000100: 307f 87be d131 503d 1de5 183d 38a1 213e
00000110: e0ac 88bc c82a 013d c454 643d d0b9 09be
00000120: 6160 b83d 7156 1c3e 3faa 7f3e 1fb6 16be
00000130: 018c dfbd 6912 d5be e61c 9c3b 97e8 f1bd
00000140: 1f3c 913c 8ab8 48be afd0 303e c6f9 81bb
00000150: c224 92be 3847 13be 98a4 5bbe ca37 7e3e
00000160: a45c 78be 42b8 af3e 5eae a4bd ad34 733d
00000170: 3bd4 273e 0810 bb3d 0cf0 23be 51a3 65be
00000180: c916 8dbd 3db6 103e 224a 9a3e dcdd 79bd
00000190: 24d0 9e3e 0374 55be 9fb9 a9be 5c67 b2be
000001a0: 3baa 6dbe 9726 90be 0d35 adbd b403 533e
000001b0: 24b8 2c3e a9c5 d03d f3d8 643e 8e45 8dbe
000001c0: a0ec d6bc d194 7bbd cf01 3c3c 7194 f4bd
000001d0: d10f 66be 75dc 61bd 71a2 223e c0e0 c23d
000001e0: 45e9 b0be 8fb4 053e 6ef9 fe3d 3d07 4bbd
000001f0: c9ce 36be 8ecf 733e 0621 52be c2c5 59bd
00000200: e619 283e 0d8d eb3d 22dc 183e ffab 83be
00000210: 650f 453c 5ac8 893e 2166 28be 6e95 80be
00000220: 79e9 a9bc e321 c53d b96a ab3e 6376 c1be
00000230: 914f 0dbe 6d26 973e 8fd6 ce3d ac97 f8bd
00000240: fd63 793c 47cd 803d a852 9c3d 571b eb3c
00000250: f530 af3e a57b 69be 31b6 55bd f0fc a2be
00000260: d09d 78be 840c adbe dc16 68be d3db 883e
00000270: 711a 9dbe 7b71 9cbe 673b f33d ef46 9ebe
00000280: 049e 253d 9bad 523e 4e4d e03d b3ae 473e
00000290: 35d6 6a3d c9ac 493d 0619 e5bd 73eb 0b3e
000002a0: 2085 00be bc64 0bbe eb15 7a3e 05ae 523e
000002b0: 940f 153e 2d4d 8bbe 9d8b 3cbe ebc7 f33d
000002c0: b0ee 36be 787f 9bbd adf2 68be 2f2a 383e
000002d0: 5012 a4be 35dc a3be 0ceb b93b 52bf c13e
000002e0: 8ec2 743e 5310 c03b c16d b0be 23b4 543e
000002f0: e856 ed3d 320b 1ebc 6d01 b0be a241 453e
00000300: 9b75 5f3e 895a 05be 8b0b 12be 3539 793e
00000310: aecb f9bd d877 5d3e 9cfb 2ebd 241f b03e
00000320: 50a8 223e 8f3e 853e 045d eb3d 22ff 163e
00000330: 29a0 53be d598 c13e 58e6 2a3e b67d 54be
00000340: 54d4 39be 338f 74be 05f0 c3bc f508 c83d
00000350: ba6a 183e 9f58 303e 7337 5f3c 560e 59be
00000360: d52a 80bd 089c 493d acf8 b1bd a042 843d
00000370: 6c3a 8abd c7a6 193e dbca de3e 5fe6 c6bc
00000380: 9749 7cbe dd08 8b3e 8fcc b0be e9ee 27be
00000390: 75ab c63e c6ad b8bd 9419 0e3e 0dd7 803e
000003a0: 2c7e cf3d c3c4 aa3e 3575 62be 7323 88bd
000003b0: 586d 26be 0afa 29be fdcd 34be fbcd 8c3e
000003c0: c1a3 1e3d de46 57be 0e37 83be 680f 05bd
000003d0: e9b2 8fbd f23c 18be 1493 43bc e854 b63e
000003e0: 15cd d83d 7b6a 04be 84a1 843e ad2a 553e
000003f0: 4a4e a23d e935 4abe dbd2 94be 4062 8bbe

cells.0.lin_u.weight f4 [16, 40]
0.29077634 0.08939128 -0.11269851 -0.08292929 -0.08320977 -0.023584709 -0.08352067 0.05280617
-0.060722854 -0.15728168 -0.20561394 0.009064103 -0.0030328848 -0.17316155 -0.1574053 -0.09316145
-0.027348371 -0.12823829 -0.07113724 -0.13557528 -0.039851647 -0.1583497 -0.20327024 -0.12679602
0.083415486 0.102692015 0.02695263 -0.18045707 0.10173529 -0.06295682 -0.077294946 0.16126002
-0.002035971 0.06823189 -0.21466081 -0.21047942 0.053639285 0.00062676746 0.1672445 -0.1719469
-0.11229009 0.171067 -0.114802234 0.015373698 -0.14523832 -0.05779972 -0.10088136 -0.076755755
-0.14976142 -0.048753075 -0.05875362 -0.139088 -0.06767343 -0.024895715 -0.04128782 -0.112048045
-0.05138291 -0.07793858 -0.046460263 -0.0874916 -0.04368439 -0.0851376 -0.10348623 -0.117896035
-0.10578282 -0.04693028 -0.1814756 0.03638399 -0.093361676 0.21762209 0.02808264 0.0953215
0.13696162 -0.17534266 -0.0640704 -0.021162074 -0.12440751 0.17748389 0.09267414 -0.05586286
-0.1035839 0.014836087 0.041155864 0.047044065 0.05294594 0.011051161 -0.17375916 0.08579905
-0.1703894 -0.18028022 -0.1317665 -0.15738134 -0.11170415 -0.13631701 -0.20787832 -0.13831797
-0.09598033 -0.13136043 -0.095234945 -0.19773957 -0.18308571 -0.15542342 -0.12849112 -0.16825673
0.082930945 0.14461431 -0.08017499 -0.069786474 0.17845911 0.11014542 -0.1200147 0.17662795
0.012730083 0.0059938603 -0.18594387 -0.056822564 -0.0273611 0.021916587 0.24671867 -0.1940596
0.282772 -0.11935868 -0.08591953 -0.027554909 0.08116802 -0.003115275 -0.18394911 0.0008707936
-0.27264893 -0.17994188 -0.13219132 -0.20191011 -0.10837075 -0.24589275 -0.26568195 -0.10551349
-0.28754282 -0.21713214 -0.14104696 -0.2008876 -0.2607479 -0.10483744 -0.10292909 -0.14314272
0.027703855 0.18608722 0.039990608 -0.09273219 0.09165147 -0.051159784 -0.1486646 0.29714447
-0.048354413 0.13978913 -0.22335586 -0.1893186 -0.028889649 -0.07023798 0.15942746 -0.22957417
0.24616158 -0.1202545 0.040491935 0.143266 -0.07038909 0.018778468 -0.12112305 0.0644418
-0.16306973 -0.08265266 -0.11803148 -0.18247224 -0.13155867 -0.100079246 -0.073098786 -0.13754876
-0.079287805 -0.057534035 -0.056670636 -0.14170957 -0.13184752 -0.09046915 -0.10354595 -0.1364352
0.15174787 0.21522866 -0.012489258 -0.063817725 0.09942643 0.04271432 -0.2115433 0.29379842
-0.046637423 0.1494855 -0.15541 -0.17683077 0.038385283 0.018563781 0.3073399 -0.24793828
-0.22725776 0.05640645 0.058407985 0.013957119 0.07431874 0.0075844727 -0.13464911 0.13354802
-0.12545459 -0.10266473 -0.09797513 -0.09112339 -0.08704697 -0.097147614 -0.12309866 -0.11659981
-0.14677055 -0.11520518 -0.08713582 -0.09049991 -0.12970349 -0.123067215 -0.08644663 -0.109797336
0.07178644 0.10181572 -0.047829088 -0.06126519 0.11260134 0.09187609 -0.039905645 0.15517025
-0.034320526 0.03438099 -0.14826736 -0.08178403 -0.0033201827 -0.0021561217 0.16610314 -0.19337706
-0.16420764 0.14487176 0.035683952 -0.1551418 -0.028900823 -0.17958477 -0.10433102 0.015715072
-0.2306617 -0.23352264 -0.15591231 -0.19982079 -0.12392722 -0.19013728 -0.13990752 -0.1385824
00000000: a3e0 943e c712 b73d 7ace e6bd d5d6 a9bd
00000010: e269 aabd b834 c1bc e30c abbd 484b 583d
00000020: 87b8 78bd 730e 21be 768c 52be 9a81 143c
00000030: 5dc3 46bb 4351 31be db2e 21be 6ecb bebd
00000040: b109 e0bc e650 03be 67b0 91bd 3fd4 0abe
00000050: 7b3b 23bd 6c26 22be 1326 50be d1d6 01be
00000060: bdd5 aa3d 3150 d23d c3cb dc3c bdc9 38be
00000070: 975a d03d 81ef 80bd d04c 9ebd 5921 253e
00000080: ed6d 05bb 29bd 8b3d 0bd0 5bbe eb87 57be
00000090: deb4 5b3d a74d 243a 2442 2b3e d912 30be
000000a0: 59f8 e5bd 302c 2f3e 6f1d ebbd f7e1 7b3c
000000b0: 5bb9 14be 66bf 6cbd e39a cebd 1f32 9dbd
000000c0: 0f5b 19be 4eb1 47bd a3a7 70bd 166d 0ebe
000000d0: 5e98 8abd 19f2 cbbc 6b1d 29bd 7279 e5bd
000000e0: e376 52bd 439e 9fbd 1e4d 3ebd cc2e b3bd
000000f0: 67ee 32bd 9f5c aebd 97f0 d3bd 7a73 f1bd
00000100: aaa4 d8bd f739 40bd bdd4 39be 6107 153d
00000110: 6834 bfbd 53d8 5e3e 910d e63c eb37 c33d
00000120: ab3f 0c3e 078d 33be 5837 83bd 165c adbc
00000130: 5dc9 febd 56be 353e f1cb bd3d 74d0 64bd
00000140: cc23 d4bd 0f13 733c 0d93 283d 47b1 403d
00000150: d8dd 583d ee0f 353c eced 31be 6ab7 af3d
00000160: 8f7a 2ebe 619b 38be cced 06be 9328 21be
00000170: 25c5 e4bd b096 0bbe 0ede 54be 3aa3 0dbe
00000180: 5691 c4bd 5983 06be 8a0a c3bd 3e7c 4abe
00000190: d27a 3bbe 5127 1fbe 2d93 03be 7e4b 2cbe
000001a0: b3d7 a93d c615 143e c932 a4bd 36ec 8ebd
000001b0: fcbd 363e ec93 e13d 44ca f5bd f5dd 343e
000001c0: d791 503c 2568 c43b 1268 3ebe c7be 68bd
000001d0: 6324 e0bc 6a8a b33c d2a3 7c3e 8fb7 46be
000001e0: 7ec7 903e 5372 f4bd 94f6 afbd d5ba e1bc
000001f0: 6b3b a63d a429 4cbb 285d 3cbe f845 643a
00000200: a498 8bbe af42 38be 295d 07be 86c1 4ebe
00000210: 7cf1 ddbd 4fcb 7bbe 7707 88be 7517 d8bd
00000220: d038 93be e357 5ebe 9d6e 10be 7bb5 4dbe
00000230: c080 85be 03b5 d6bd 7dcc d2bd 0194 12be
00000240: 32f3 e23c a68d 3e3e 31cd 233d 60ea bdbd
00000250: c4b3 bb3d ec8c 51bd 883b 18be 5223 983e
00000260: 470f 46bd e224 0f3e 66b7 64be bcdc 41be
00000270: fca9 ecbc eed8 8fbd f440 233e 7e15 6bbe
00000280: c811 7c3e fe47 f6bd dfda 253d 53b4 123e
00000290: 2828 90bd 4dd5 993c 5d0f f8bd 10fa 833d
000002a0: c0fb 26be cc45 a9bd 7dba f1bd 01da 3abe
000002b0: 51b7 06be 59f6 ccbd d1b4 95bd 95d9 0cbe
000002c0: a561 a2bd cfa8 6bbd 781f 68bd 501c 11be
000002d0: 0903 07be e447 b9bd e60f d4bd abb5 0bbe
000002e0: cb63 1b3e e764 5c3e bf9f 4cbc deb2 82bd
000002f0: 16a0 cb3d 36f5 2e3d cf9e 58be bf6c 963e
00000300: e206 3fbd ba12 193e cd23 1fbe 2013 35be
00000310: e339 1d3d 1213 983c a85b 9d3e 88e3 7dbe
00000320: 42b6 68be 730a 673d 363d 6f3d 66ac 643c
00000330: 6c34 983d 2b87 f83b 75e1 09be d0c0 083e
00000340: 2b77 00be e341 d2bd 2fa7 c8bd e69e babd
00000350: af45 b2bd 54f5 c6bd 261b fcbd e2cb eebd
00000360: 054b 16be b2f0 ebbd 4474 b2bd 0458 b9bd
00000370: fed0 04be aa0a fcbd ee0a b1bd 6ddd e0bd
00000380: c504 933d c384 d03d 6fe8 43bd 35f1 7abd
00000390: 889b e63d 8829 bc3d 1a74 23bd f3e4 1e3e
000003a0: ae93 0cbd 15d3 0c3d 66d3 17be 637e a7bd
000003b0: 6c97 59bb b84d 0dbb f116 2a3e a304 46be
000003c0: 0c26 28be 4359 143e 5629 123d 7edd 1ebe
000003d0: 6bc1 ecbc 12e5 37be 80ab d5bd e5bc 803c
000003e0: 9532 6cbe 8f20 6fbe 7aa7 1fbe d29d 4cbe
000003f0: 8ecd fdbd 59b3 42be eb43 0fbe 8be8 0dbe

cells.0.lin_u.bias f4 [16]
-0.16360797 -0.15586978 -0.16413389 -0.14762162 -0.22430922 -0.17740239 -0.18442334 0.12923348
-0.23176983 -0.28368604 0.34362772 -0.061767448 -0.3055951 -0.17742942 -0.023085592 0.30382878
00000000: d988 27be 549c 1fbe b712 28be 1f2a 17be
00000010: 51b1 65be f9a8 35be 79d9 3cbe c855 043e
00000020: 1255 6dbe 4c3f 91be f9ef af3e ddff 7cbd
00000030: f676 9cbe 0fb0 35be ff1d bdbc 728f 9b3e

cells.0.lin_r.weight f4 [16, 40]
-0.26462108 -0.008163527 0.06291774 0.039076686 0.1309953 0.052318495 0.037474494 0.078971185
-0.08224529 -0.015786948 -0.019059807 -0.05149619 -0.00242381 0.06421825 0.17652509 0.012752959
0.091706485 0.00754805 -0.054136924 0.024952242 0.09148995 -0.0068863523 0.18659657 -0.09347593
-0.08157671 0.1350497 0.0800956 -0.07269972 0.031651963 -0.13097623 0.048936643 0.02645979
-0.19572735 -0.008408639 0.14906001 0.036416426 0.09050219 0.01876557 0.10270047 -0.16194302
0.33469722 0.26978832 0.0380689 0.07781974 0.011884565 0.041743953 -0.13175792 0.017165406
0.10650655 -0.11914513 -0.036659047 -0.044506382 -0.115848124 -0.1281664 -0.066420764 0.08817027
-0.012848181 -0.02919636 -0.0072880485 -0.007648836 0.14893256 -0.0320678 0.10944173 -0.043143637
0.038890053 0.095791794 -0.08185021 -0.11701512 0.13027692 0.025107134 -0.061258763 0.07624857
-0.02547824 -0.031382885 -0.10735586 -0.037046902 0.08215006 -0.039265614 -0.11803656 0.13112172
0.029459303 -0.009494893 0.030256016 -0.045884453 0.011559468 -0.031986166 -0.08962985 0.0082681365
-0.07581983 -0.08226445 -0.03693499 -0.043975055 -0.019009737 -0.063634366 -0.06692853 -0.051882446
-0.14032738 -0.030208744 -0.07014757 -0.020477774 -0.06887864 -0.09638621 -0.072893225 -0.114684135
0.02159621 0.025477141 -0.0039876094 -0.019189578 0.054741763 0.011172076 0.018449701 0.042341903
0.074475355 -0.0073725022 -0.017542467 -0.026950369 -0.031435378 -0.0026308692 0.15446004 -0.040885694
-0.25176644 -0.038880873 0.055728804 -0.021769304 0.039953854 0.085586116 -0.01867055 -0.12890273
0.15093938 0.13420258 0.103576325 0.023071649 0.08192499 0.032255404 0.13332292 -0.10439006
-0.063552245 0.0860683 -0.10997526 -0.007148361 -0.10855233 0.06499271 0.020508163 -0.038876094
-0.013388398 0.1650952 -0.067738935 -0.08258289 0.1296276 -0.08178826 -0.23238179 -0.08478643
-0.16371621 0.07481802 0.028866984 -0.15799747 0.13566785 0.015455209 0.0449786 -0.082895905
-0.16825105 -0.13527097 0.0048444844 -0.0058005988 -0.09686795 -0.08551861 0.09431131 -0.030472482
-0.0035403413 -0.018709308 -0.08642841 0.009623369 0.09803234 -0.04289218 0.10692767 0.09668838
0.14586145 0.003986272 0.10568914 0.054012503 0.039238796 -0.046442 0.098017275 0.045496337
-0.023660455 0.050731003 -0.061880033 -0.06690234 -0.021061735 -0.05062832 -0.1299451 0.08690821
-0.028743353 -0.02609529 0.0023904243 -0.019824915 0.087295726 0.010413125 -0.06856405 -0.16829506
-0.11388989 -0.3990331 -0.09548515 0.08624277 0.031548087 0.040482067 -0.06592936 -0.15879487
0.03471293 -0.062460404 -0.020443305 0.04207259 0.0070714625 0.054539114 0.03518208 -0.0074080843
-0.08277748 0.06882217 0.054182153 0.02255949 -0.09452381 -0.0030445328 0.0136479 -0.0490677
0.04138084 0.14790954 0.07628594 0.026287338 0.1031356 -0.107874654 0.023394538 -0.13341807
-0.1495893 0.061571434 -0.07341826 0.00907203 0.13343671 -0.0063268268 0.078223825 0.09222222
0.0752163 -0.005355443 0.104573525 0.02039569 -0.03613612 -0.087032035 -0.13394214 -0.20613933
-0.047418576 -0.059939824 -0.077751644 -0.09239699 -0.17638668 -0.13978004 0.013966942 -0.072471224
00000000: 6a7c 87be 50c0 05bc 04db 803d e00e 203d
00000010: a223 063e eb4b 563d db7e 193d a5bb a13d
00000020: 3870 a8bd a153 81bc 5023 9cbc abed 52bd
00000030: c9d8 1ebb dc84 833d fec2 343e c9f1 503c
00000040: 9cd0 bb3d a255 f73b aebe 5dbd a568 cc3c
00000050: 155f bb3d e9a6 e1bb 2c13 3f3e 4f70 bfbd
00000060: b111 a7bd 784a 0a3e 2909 a43d 97e3 94bd
00000070: 7da5 013d a21e 06be ca71 483d 34c2 d83c
00000080: c06c 48be 63c4 09bc 30a3 183e 6429 153d
00000090: 3659 b93d 41ba 993c a054 d23d 64d4 25be
000000a0: 6f5d ab3e b221 8a3e 23ee 1b3d f55f 9f3d
000000b0: 7bb7 423c b5fb 2a3d 8ceb 06be 779e 8c3c
000000c0: 1b20 da3d 5d02 f4bd cc27 16bd 534c 36bd
000000d0: c841 edbd 0e3e 03be 9c07 88bd 9d92 b43d
000000e0: 2d81 52bc 342d efbc 95d0 eebb 16a3 fabb
000000f0: c781 183e 8759 03bd fc22 e03d 62b7 30bd
00000100: 2d4b 1f3d 7d2e c43d 15a1 a7bd a0a5 efbd
00000110: 5067 053e 7aad cd3c 78ea 7abd 3628 9c3d
00000120: beb7 d0bc 578b 00bd 64dd dbbd 7ebe 17bd
00000130: 4a3e a83d fbd4 20bd 27bd f1bd c644 063e
00000140: a354 f13c 7890 1bbc 77db f73c 56f1 3bbd
00000150: ec63 3d3c ed03 03bd db8f b7bd 1477 073c
00000160: 6d47 9bbd 447a a8bd 2549 17bd 301f 34bd
00000170: 4fba 9bbc bc52 82bd d311 89bd b082 54bd
00000180: fbb1 0fbe 5478 f7bc 87a9 8fbd 01c1 a7bc
00000190: 3f10 8dbd 2266 c5bd 0b49 95bd 84df eabd
000001a0: 89ea b03c 70b5 d03c 7eaa 82bb 7633 9dbc
000001b0: e638 603d 150b 373c d423 973c b46e 2d3d
000001c0: 8986 983d 0895 f1bb 38b5 8fbc 05c7 dcbc
000001d0: 62c2 00bd a96a 2cbb c62a 1e3e c277 27bd
000001e0: 88e7 80be 8d41 1fbd e343 643d 8a55 b2bc
000001f0: a7a6 233d c647 af3d fbf2 98bc 14ff 03be
00000200: da8f 1a3e 676c 093e d31f d43d c100 bd3c
00000210: 4ac8 a73d 3e1e 043d ce85 083e 75ca d5bd
00000220: ae27 82bd 9444 b03d b63a e1bd cc3c eabb
00000230: af50 debd e61a 853d bc00 a83c 8a3c 1fbd
00000240: 035b 5bbc b70e 293e b6ba 8abd 3821 a9bd
00000250: 19bd 043e 9a80 a7bd 7ef5 6dbe 82a4 adbd
00000260: 39a5 27be 313a 993d 747a ec3c 17ca 21be
00000270: 83ec 0a3e d837 7d3c 7b3b 383d 54c5 a9bd
00000280: 014a 2cbe 7984 0abe 7bbe 9e3b f312 bebb
00000290: b462 c6bd 6224 afbd 4a26 c13d 6da1 f9bc
000002a0: 1205 68bb 4344 99bc 6101 b1bd 56ab 1d3c
000002b0: 2ec5 c83d b6af 2fbd e5fc da3d 8f04 c63d
000002c0: b45c 153e 469f 823b 8c73 d83d 373c 5d3d
000002d0: dcb8 203d f739 3ebd 48bd c83d 5e5a 3a3d
000002e0: 92d3 c1bc 50cb 4f3d eb75 7dbd 1804 89bd
000002f0: a989 acbc a45f 4fbd 5410 05be eefc b13d
00000300: 2e77 ebbc cac5 d5bc aaa8 1c3b dc67 a2bc
00000310: 1ac8 b23d d09b 2a3c 4f6b 8cbd 8a55 2cbe
00000320: 1a3f e9bd 114e ccbe b88d c3bd 0da0 b03d
00000330: 9138 013d 86d0 253d f905 87bd 1f9b 22be
00000340: 252f 0e3d 7bd6 7fbd b878 a7bc 4f54 2c3d
00000350: bab7 e73b 6864 5f3d 161b 103d 84bf f2bb
00000360: 3d87 a9bd a3f2 8c3d 1bee 5d3d aece b83c
00000370: b395 c1bd c986 47bb 719b 5f3c 36fb 48bd
00000380: f57e 293d 9975 173e ce3b 9c3d 8b58 d73c
00000390: c238 d33d 63ed dcbd e7a5 bf3c bf9e 08be
000003a0: f02d 19be 5432 7c3d 505c 96bd daa2 143c
000003b0: a2a3 083e 4551 cfbb d033 a03d 01df bc3d
000003c0: 010b 9a3d b67c afbb a52a d63d dd14 a73c
000003d0: 7803 14bd da3d b2bd 2128 09be 3016 53be
000003e0: fb39 42bd 7683 75bd 413c 9fbd a23a bdbd
000003f0: b69e 34be 8022 0fbe 9ad5 643c cb6b 94bd

cells.0.lin_r.bias f4 [16]
-0.045719672 -0.0785062 -0.15426607 -0.084260605 0.11415701 -0.13687152 -0.21817182 0.13887438
-0.03605553 -0.07559096 0.072514154 0.06820523 0.008332983 -0.071534574 0.038311638 0.17974824
00000000: 8d44 3bbd dcc7 a0bd edf7 1dbe d390 acbd
00000010: 27cb e93d 0c28 0cbe 6f68 5fbe 1635 0e3e
00000020: f7ae 13bd 6fcf 9abd 4d82 943d 2faf 8b3d
00000030: 1087 083c b880 92bd aaec 1c3d ec0f 383e

cells.0.lin_c.weight f4 [16, 40]
0.3310204 -0.05024361 0.08068404 -0.065011926 0.022785312 -0.063158035 -0.09164174 -0.01100808
0.09259294 -0.022554716 0.106326275 0.13888824 -0.07858306 -0.079063974 -0.062261883 -0.12730145
-0.06695279 0.010660584 -0.08256047 0.10132688 -0.13175005 0.013918678 -0.07209161 0.061657347
-0.124192856 -0.13494346 0.049017575 -0.11486552 0.047690906 0.055435225 -0.110003896 0.036394313
0.118306264 0.0303296 0.041247673 -0.13689171 0.054790284 0.21857446 -0.113826044 -0.14000565
0.1679365 0.29172602 -0.0017840604 -0.029754827 0.124976076 0.08966808 0.07717523 -0.036901403
-0.116968915 -0.13479953 -0.1485406 -0.14611563 -0.13339542 -0.098443046 -0.107664995 -0.072037704
-0.16858403 -0.06089579 0.0036932777 -0.10546637 0.0118085835 0.084399305 0.016854247 -0.11212937
0.14628427 -0.15593669 0.19634117 -0.0031697287 0.19082129 -0.07460983 -0.022631852 0.0855512
0.023204638 0.063940994 0.13781571 0.043274242 0.25691956 -0.11339751 -0.110767186 0.021553336
0.3614631 0.019958835 0.02682408 0.015900286 0.05025834 -0.066888206 0.04705806 0.0020644006
-0.058828156 -0.04187823 0.044148587 0.0072018686 0.067192055 -0.051541235 0.05454705 -0.04824853
0.13074414 0.043907426 -0.09461806 0.1639918 -0.1331155 0.14742991 -0.13847737 0.11822139
0.067345135 0.0007417859 -0.07081276 -0.06537644 -0.027134895 0.065400966 0.093008794 0.030896392
0.06362958 0.08885224 0.03138191 0.10082289 -0.10026547 0.11667683 0.12315281 0.07293479
-0.33607388 -0.032923687 0.053511526 -0.043261517 0.025145348 0.051026557 -0.11195341 -0.024908464
0.026836403 -0.11773676 0.0039620656 0.071653225 0.07869049 -0.05515491 0.08045397 -0.03348232
0.0217946 -0.0035507458 -0.11296052 0.07102175 0.023466153 0.15036555 -0.03979646 0.036329936
-0.20192458 0.06773441 0.07019122 0.14918795 0.070650734 -0.17658636 -0.07309296 -0.12990606
0.097062826 -0.077089295 0.09901994 -0.011786254 -0.11310792 -0.17866673 -0.06385044 0.12063534
0.24455908 0.14748013 -0.071083 0.094115905 0.0036163286 0.07181066 -0.15607843 -0.04331071
-0.1295977 -0.06643463 -0.059382968 0.12003927 -0.060815137 -0.11832162 0.007942988 -0.13832778
-0.14064434 -0.103977546 0.032574106 0.07328999 -0.037653495 -0.04242143 0.13725188 0.04027292
-0.16607513 -0.104454674 0.043205053 0.16035222 -0.09062345 0.057777945 0.0542694 -0.0099979695
-0.049595516 -0.14838977 -0.08638302 0.037040368 -0.010116379 0.067213826 0.17509596 -0.1711637
-0.2647837 -0.1534041 0.015161006 -0.036079682 -0.10921794 0.027163742 0.09333992 -0.00085693435
0.0093509285 -0.10381926 -0.010210432 -0.08637346 -0.06191365 -0.121127166 -0.11213808 0.12416585
0.014056713 0.0642641 -0.09468017 -0.11252789 -0.013694093 0.11059071 0.13589714 -0.14412805
-0.07374278 0.0776505 0.01873202 0.18348972 0.06446405 -0.21342508 0.016233733 0.05179854
0.049217094 0.106466606 -0.039610606 0.017068192 -0.09869942 0.049892325 -0.097190365 -0.02328142
-0.32371023 -0.008339312 -0.07375741 0.07089069 0.10471046 -0.06995808 0.004607077 -0.007852372
0.12144917 -0.10236423 0.09351958 0.15937072 0.018656401 0.020958448 -0.03212631 0.06181002
00000000: 827b a93e 3ecc 4dbd ad3d a53d f924 85bd
00000010: 43a8 ba3c 0059 81bd aaae bbbd 3c5b 34bc
00000020: 5ea1 bd3d abc4 b8bc 97c1 d93d b838 0e3e
00000030: 28f0 a0bd 4bec a1bd 5106 7fbd 505b 02be
00000040: 8b1e 89bd bba9 2e3c 7715 a9bd 7884 cf3d
00000050: 7ce9 06be 2b0b 643c c4a4 93bd 6a8c 7c3d
00000060: d358 febd 9e2e 0abe a7c6 483d 9d3e ebbd
00000070: 8a57 433d 0c10 633d b949 e1bd 3412 153d
00000080: 8e4a f23d c875 f83c 52f3 283d 572d 0cbe
00000090: c76b 603d fcd1 5f3e a11d e9bd a45d 0fbe
000000a0: 8cf7 2b3e 1d5d 953e 22d7 e9ba 65c0 f3bc
000000b0: 75f3 ff3d e6a3 b73d 0c0e 9e3d ed25 17bd
000000c0: 668d efbd e308 0abe 071b 18be 569f 15be
000000d0: cf98 08be 829c c9bd 777f dcbd 8188 93bd
000000e0: 4ba1 2cbe dd6d 79bd eb0a 723b c1fe d7bd
000000f0: ca78 413c 8bd9 ac3d eb11 8a3c 15a4 e5bd
00000100: 8bcb 153e dead 1fbe a90d 493e 39bb 4fbb
00000110: a866 433e 0acd 98bd 6f66 b9bc 7835 af3d
00000120: a717 be3c 7ff3 823d 901f 0d3e 5540 313d
00000130: f68a 833e f43c e8bd e8d9 e2bd 9f90 b03c
00000140: b111 b93e b680 a33c 2cbe db3c 5141 823c
00000150: b0db 4d3d affc 88bd f4bf 403d e54a 073b
00000160: cbf5 70bd 8288 2bbd 26d5 343d a7fd eb3b
00000170: fd9b 893d e71c 53bd ba6c 5f3d 40a0 45bd
00000180: cbe1 053e 46d8 333d 1dc7 c1bd 77ed 273e
00000190: 6e4f 08be def7 163e 03cd 0dbe 0e1e f23d
000001a0: 3fec 893d 6974 423a 4806 91bd 15e4 85bd
000001b0: 004a debc f1f0 853d 657b be3d 6e1a fd3c
000001c0: 3a50 823d 2af8 b53d 518a 003d 3b7c ce3d
000001d0: fc57 cdbd 43f4 ee3d 8a37 fc3d d65e 953d
000001e0: e011 acbe fdda 06bd e72e 5b3d fd32 31bd
000001f0: 9efd cd3c 3901 513d d447 e5bd d60c ccbc
00000200: 04d8 db3c f81f f1bd 37d4 813b edbe 923d
00000210: 7b28 a13d 1dea 61bd 0dc5 a43d c224 09bd
00000220: 978a b23c a1b3 68bb d857 e7bd da73 913d
00000230: 173c c03c 6df9 193e 9d01 23bd b3ce 143d
00000240: 51c5 4ebe 57b8 8a3d 6ac0 8f3d bac4 183e
00000250: 55b1 903d 0ed3 34be c3b1 95bd 1806 05be
00000260: e0c8 c63d fee0 9dbd f7ca ca3d 221b 41bc
00000270: 20a5 e7bd 69f4 36be 05c4 82bd a90f f73d
00000280: b26d 7a3e 0805 173e f793 91bd d7bf c03d
00000290: edff 6c3b 7811 933d 06d3 1fbe 9266 31bd
000002a0: 42b5 04be e10e 88bd 8e3b 73bd 26d7 f53d
000002b0: 4b19 79bd 9b52 f2bd 4e23 023c cca5 0dbe
000002c0: 1205 10be 2ef2 d4bd 6d6c 053d 1019 963d
000002d0: 8d3a 1abd 18c2 2dbd c28b 0c3e 38f5 243d
000002e0: 990f 2abe 55ec d5bd c8f7 303d 5f33 243e
000002f0: ca98 b9bd 91a8 6c3d 9749 5e3d 86ce 23bc
00000300: ab24 4bbd 7df3 17be 95e9 b0bd a4b7 173d
00000310: 2bbf 25bc 67a7 893d 5b4c 333e 8945 2fbe
00000320: bb91 87be f715 1dbe de65 783c 4ac8 13bd
00000330: a8ad dfbd 7f86 de3c 0029 bf3d e4a3 60ba
00000340: a334 193c 319f d4bd a849 27bc 92e4 b0bd
00000350: 2b99 7dbd 8511 f8bd a6a8 e5bd aa4a fe3d
00000360: 214e 663c e59c 833d ade7 c1bd 0675 e6bd
00000370: 305d 60bc 627d e23d 9f28 0b3e 4e96 13be
00000380: 7406 97bd 3a07 9f3d e573 993c bbe4 3b3e
00000390: ba05 843d 1b8c 5abe 9bfc 843c b52a 543d
000003a0: dd97 493d 2a0b da3d bb3e 22bd 98d2 8b3c
000003b0: ec22 cabd e55b 4c3d be0b c7bd adb8 bebc
000003c0: 59bd a5be 9ca1 08bc 200e 97bd 232f 913d
000003d0: 7072 d63d 2f46 8fbd f7f6 963b 3ca7 00bc
000003e0: 58ba f83d 56a4 d1bd 3287 bf3d 1432 233e
000003f0: 4fd5 983c 0db1 ab3c e196 03bd 812c 7d3d

cells.0.lin_c.bias f4 [16]
-0.031124782 0.03991301 0.061590806 0.09588252 0.088495076 0.02918948 0.07598539 -0.073239334
-0.091041446 0.049512424 0.19367816 0.019166095 0.12810737 0.008939276 -0.17661776 0.074603245
00000000: 66f9 febc d37b 233d a446 7c3d 0e5e c43d
00000010: e83c b53d c71e ef3c 3a9e 9b3d 81fe 95bd
00000020: f073 babd 8acd 4a3d 9153 463e 3702 9d3c
00000030: 942e 033e 0b76 123c 49db 34be 96c9 983d

cells.1.gcn.convs.0.bias f4 [16]
-0.043604203 0.01693271 -0.0010858902 0.0371667 -0.01802196 -0.014506849 -0.03802615 0.0048412145
-0.04467712 -0.005773152 0.01216391 -0.041698076 0.12559192 -0.034174662 -0.0049926382 0.011288891
00000000: 529a 32bd 77b6 8a3c 6e54 8eba 1c3c 183d
00000010: caa2 93bc 23ae 6dbc 4fc1 1bbd 0da3 9e3b
00000020: 5bff 36bd b62c bdbb 234b 473c 9acb 2abd
00000030: 2b9b 003e bbfa 0bbd 4999 a3bb 0af5 383c

cells.1.gcn.convs.0.lin.weight f4 [16, 16]
0.008064472 -0.027284829 -0.0003562098 -0.017875873 -0.006481692 2.6400076e-05 0.045129597 0.0067975926
4.2565804e-05 0.027063409 -0.0021647143 -4.2565498e-05 -0.0063969092 0.0005614165 0.01719415 -0.0016793302
0.010843748 -0.008151086 0.0032336975 -0.0013925105 -0.004147706 -0.003973926 -0.0015385327 -0.0013678052
-0.008434885 0.0016273631 -0.0008659642 0.008717312 0.001748966 -8.817519e-05 0.0061650216 -0.012853513
0.0230795 0.0069462187 -0.02635209 -0.0038393459 0.0014611125 -0.0013875429 -0.00027553877 -0.0061024665
0.010468098 0.0025704792 -0.0031233607 0.08395818 -0.040915113 -0.000806586 0.09406375 0.0015545153
0.17023034 0.17738794 0.16194476 -0.27298948 -0.1623206 -0.18125406 0.0065347217 -0.004156912
-0.045209747 -0.17004871 -0.252654 0.03685105 0.13262059 -0.14426234 -0.055479523 -0.040089186
0.26013008 0.2081788 0.17166138 -0.21449216 0.08158136 -0.1194575 -0.21473387 -0.37962827
0.2481441 -0.120968826 0.57194936 -0.28884637 -0.12926042 0.057658 -0.28919435 0.38989115
0.014097126 0.10718426 0.036685515 0.028855748 -0.0131125925 -0.0033533375 -0.038776316 0.05049248
0.016467394 -0.0020511264 -0.032849595 -0.008398938 -0.04375332 0.023610024 0.007868731 0.11105973
0.018212946 -0.07862516 0.057503223 -0.21568622 -0.21546933 0.042780332 -0.14135098 -0.044360396
0.122387946 -0.20031752 -0.23175721 -0.08053556 0.11609516 -0.3320176 0.093359955 0.02491202
0.008952517 0.010631253 0.031610396 -0.04387257 -0.044667132 -0.02028547 -0.028698506 0.062099695
-0.010625031 0.011917671 -0.026638066 0.00939199 -0.011591281 -0.06434424 0.011107013 -0.022956029
-0.11298993 0.30359295 0.0042404393 -0.23053667 0.10099053 0.09365642 -0.1083672 -0.1686424
0.058210295 0.18305863 0.1427418 -0.11764385 -0.1676044 0.079914935 0.0082156295 0.14710043
0.00962855 0.008194131 0.0006608254 -0.008840614 -0.0004369053 0.00027236593 -0.010432775 0.012931597
-0.0013743832 0.0035714337 -0.013049768 -0.0033232302 0.009792331 -0.0009096929 0.020040512 -0.018464973
0.2669653 -0.16985156 0.020898532 0.08489428 0.19615997 -0.07144305 -0.17721109 -0.054062165
-0.086216696 0.04251595 -0.16330916 0.18134974 -0.20685437 -0.22159688 0.08006759 -0.026439952
-0.046631053 0.13981035 -0.070241235 -0.2555682 -0.15215977 0.11921147 -0.08073673 -0.1797701
-0.030148579 0.20609348 0.11820943 -0.14705244 0.0038505148 -0.05979679 -0.21677208 -0.29076296
-0.0609732 -0.074648894 0.13974094 0.08074508 -0.0962987 -0.045796383 0.040580317 0.017851979
-0.11422597 0.080434345 -0.21222097 0.208325 0.04672139 -0.22982346 -0.0030460334 -0.1725148
-0.26608577 0.16146222 0.1407708 0.059071694 0.11820929 0.10298827 -0.33693492 -0.07321135
-0.047056835 0.16958532 0.38380158 -0.15222222 -0.3024736 -0.055340663 -0.32071868 0.13096173
-0.01955136 0.009368043 -0.003116128 -0.018351562 0.0033702855 -0.00047708236 0.025004018 -0.051794723
0.003290842 -0.017278014 -0.0021444787 0.04597293 0.04018569 -0.004702898 0.096709736 -0.031762876
-0.33773258 -0.24540992 0.2902156 0.063320585 0.13974153 0.051147275 -0.23529989 -0.3585949
-0.121989615 -0.044854693 -0.2154124 -0.091863744 -0.22903486 0.27399936 -0.13019699 -0.04545832
00000000: d920 043c 6f84 dfbc acc1 bab9 6c70 92bc
00000010: 6064 d4bb bb75 dd37 d0d9 383d 57be de3b
00000020: af88 3238 15b4 dd3c e1dd 0dbb 5b88 32b8
00000030: 2a9d d1bb 062c 133a bfda 8c3c f91c dcba
00000040: faa9 313c 228c 05bc 71ec 533b e684 b6ba
00000050: 7be9 87bb b537 82bb 97a8 c9ba ed47 b3ba
00000060: 7932 0abc 3f4d d53a e001 63ba 0ed3 0e3c
00000070: 903d e53a b2ea b8b8 f303 ca3b 8a97 52bc
00000080: 3811 bd3c 1b9d e33b 57e0 d7bc 899d 7bbb
00000090: cd82 bf3a 37de b5ba 3076 90b9 33f7 c7bb
000000a0: 6382 2b3c 7c75 283b 4cb1 4cbb 44f2 ab3d
000000b0: 9b96 27bd 1271 53ba 7fa4 c03d e1c0 cb3a
000000c0: dd50 2e3e 2fa5 353e d9d4 253e 47c5 8bbe
000000d0: 5f37 26be aa9a 39be 3821 d63b b536 88bb
000000e0: db2d 39bd 4021 2ebe dd5b 81be 20f1 163d
000000f0: b1cd 073e 82b9 13be 7f3e 63bd 8f34 24bd
00000100: c52f 853e d32c 553e 00c8 2f3e d5a3 5bbe
00000110: 2114 a73d 22a6 f4bd 32e3 5bbe a35e c2be
00000120: 7d19 7e3e 81be f7bd 466b 123f ace3 93be
00000130: d85c 04be cc2a 6c3d 4811 94be d09f c73e
00000140: a2f7 663c 6c83 db3d 8d43 163d e462 ec3c
00000150: 33d6 56bc abc3 5bbb ead3 1ebd 34d1 4e3d
00000160: a1e6 863c 316c 06bb 4c8d 06bd b39b 09bc
00000170: ae36 33bd cf69 c13c daeb 003c 4973 e33d
00000180: 5133 953c 3a06 a1bd 8088 6b3d d9dc 5cbe
00000190: fea3 5cbe 6e3a 2f3d 50be 10be 3fb3 35bd
000001a0: 88a6 fa3d 0920 4dbe c351 6dbe d4ef a4bd
000001b0: 4dc3 ed3d 36fe a9be 8133 bf3d 4b14 cc3c
000001c0: 94ad 123c b52e 2e3c e779 013d b9b3 33bd
000001d0: e2f4 36bd b72d a6bc 2119 ebbc 405c 7e3d
000001e0: 9c14 2ebc 5642 433c 1338 dabc dce0 193c
000001f0: 5be9 3dbc eac6 83bd 30fa 353c 480e bcbc
00000200: 4467 e7bd 8970 9b3e 62f3 8a3b ce11 6cbe
00000210: 1fd4 ce3d f0ce bf3d 9fef ddbd 98b0 2cbe
00000220: eb6d 6e3d b973 3b3e e82a 123e 42ef f0bd
00000230: 7da0 2bbe 71aa a33d d99a 063c 7fa1 163e
00000240: 11c1 1d3c ad40 063c 3e3b 2d3a 39d8 10bc
00000250: 7010 e5b9 56cc 8e39 3bee 2abc 0ddf 533c
00000260: a624 b4ba b70e 6a3b b2ce 55bc 8dca 59bb
00000270: 0370 203c 7578 6eba 002c a43c db43 97bc
00000280: adaf 883e 91ed 2dbe 6633 ab3c 0ddd ad3d
00000290: 29de 483e bc50 92bd d376 35be 4a70 5dbd
000002a0: 6192 b0bd 3425 2e3d 843a 27be bfb3 393e
000002b0: a2d1 53be 4bea 62be 7afa a33d 9998 d8bc
000002c0: 3400 3fbd 722a 0f3e a3da 8fbd d6d9 82be
000002d0: c5cf 1bbe 2525 f43d 4c59 a5bd a715 38be
000002e0: 27fa f6bc 2b0a 533e c917 f23d ea94 16be
000002f0: eb58 7c3b 7bed 74bd 80f9 5dbe e2de 94be
00000300: 09bf 79bd 85e1 98bd 4018 0f3e ad5d a53d
00000310: 4138 c5bd fd94 3bbd 8c37 263d 503e 923c
00000320: 4eef e9bd c3ba a43d 7450 59be 2653 553e
00000330: ee5e 3f3d d756 6bbe f69f 47bb b8a7 30be
00000340: 653c 88be 5a56 253e 3826 103e 29f5 713d
00000350: b617 f23d 84eb d23d bc82 acbe d5ef 95bd
00000360: abbe 40bd c6a7 2d3e a481 c43e 24e0 1bbe
00000370: d2dd 9abe e4ac 62bd 3d35 a4be d51a 063e
00000380: 2c2a a0bc 6c7c 193c f437 4cbb 0456 96bc
00000390: 02e0 5c3b e920 fab9 3ad5 cc3c b426 54bd
000003a0: 2bab 573b 9f8a 8dbc 628a 0cbb 1c4e 3c3d
000003b0: c099 243d c51a 9abb c10f c63d ca19 02bd
000003c0: 49eb acbe bd4c 7bbe 2497 943e 39ae 813d
000003d0: 6718 0f3e ce7f 513d 74f2 70be c099 b7be
000003e0: b1d5 f9bd 8eb9 37bd 1195 5cbe 0f23 bcbd
000003f0: 1d88 6abe a549 8c3e 5c52 05be 8132 3abd

cells.1.gcn.convs.1.bias f4 [16]
-0.023120208 0.0014343881 0.070186734 -0.037301265 0.059523445 0.029824492 0.010017623 0.008562737
-0.032914996 0.021657709 0.050654788 -0.018842455 0.036746766 -0.027358375 0.08206101 0.026942534
00000000: 9766 bdbc 1402 bc3a 10be 8f3d 36c9 18bd
00000010: dbce 733d 7e52 f43c f520 243c b94a 0c3c
00000020: e0d1 06bd 826b b13c 657b 4f3d 7e5b 9abc
00000030: c783 163d ac1e e0bc 9a0f a83d 97b6 dc3c

cells.1.gcn.convs.1.lin.weight f4 [16, 16]
-0.0001967559 0.056905773 -0.002219207 0.12503302 -0.2752073 0.0012005714 -0.2909273 0.013533975
0.12236104 0.0049274354 0.1011824 0.1746158 0.20219696 -0.036626816 0.01765435 0.2721135
0.00019663038 0.014774651 -0.000336977 -0.00047786234 0.033512205 0.0017732307 -0.09101108 0.0009170528
-0.09721105 0.019780438 0.011193009 0.26907426 0.095330924 -0.27868816 0.0018854985 0.105975054
0.00023176034 0.004545613 0.0006325484 0.060041584 0.30168647 0.00095987716 -0.09002192 -0.011104628
0.0088461675 -0.005657161 -0.0020852787 0.25105742 -0.023277326 -0.2177066 0.0023915516 0.2589573
0.0003299383 -0.014411748 0.001998069 -0.008955915 0.20386523 -0.004039992 0.21367557 0.0028305694
-0.041849494 -0.025662713 0.07504831 0.20333439 -0.09755288 0.17643817 -0.012607089 -0.303885
-2.3345705e-05 -0.0021037827 -5.618594e-05 -0.019770661 0.04386419 -0.0001744505 0.068577304 -0.009538595
0.03057815 -0.0039253486 0.00517882 -0.10704553 0.10437822 0.1232206 -0.0015596941 0.1681109
0.00041679948 -0.016256176 0.0012660879 0.21760747 -0.38351923 -0.005160718 0.088215485 -0.0021555529
-0.063663766 0.011900861 -0.008410076 0.2640882 0.09919269 -0.061744235 0.011526339 -0.013949216
-0.0002388986 0.004084983 -0.00093082857 0.015549832 -0.6223759 -0.0005019434 -0.019794494 0.009144016
0.086812735 0.00020762575 0.039136592 0.0028292162 0.2884589 -0.12501608 -0.00020821506 -0.15817231
9.435424e-05 -0.007432995 7.5409014e-05 0.16134618 0.25061515 0.00053701294 -0.13508359 -0.016950967
0.002000691 -0.0049151923 -0.020914 -0.026851973 -0.03025763 -0.16105042 4.588658e-05 0.22308098
-0.0013583616 -0.051028635 0.0001705129 -0.14773501 0.28741267 -0.00075769465 -0.08614663 -0.020530706
0.08013631 0.003636762 -0.004554833 0.023810871 0.04628459 -0.19106957 0.006585238 -0.10552444
0.00047535743 0.012517306 -0.0010584226 0.06851457 -0.20501104 -0.0033353886 -0.09720776 -0.0024506196
-0.045962267 0.03147434 -0.0027235507 -0.064180225 0.086931445 -0.017560786 -0.008530478 -0.06934192
0.0004899196 0.1180871 0.00033520933 -0.19033355 -0.15841545 0.0038890026 -0.08361573 -0.015903685
0.036877036 0.051320344 -0.10754026 0.03879786 -0.088715404 0.0017841128 0.003342552 0.22554097
0.00011926833 0.00087316055 -0.00020349791 0.0087636355 0.33783925 -0.0007987183 -0.073167555 0.008534882
-0.026298754 -0.0051917313 0.02175831 -0.015697941 0.1324922 -0.23127332 3.803302e-05 -0.03165105
-0.005204525 -0.05753649 -0.0019020933 -0.10812889 -0.350475 -0.0199859 -0.1456722 -0.013730448
0.17890652 -0.104607925 -0.19128539 -0.251044 -0.043197557 -0.29750833 -0.12413137 0.05877513
-0.00023935354 0.008844121 -0.0011247689 0.14733855 -0.40980172 -0.00014902279 -0.033039175 0.0051663574
0.050813995 0.002864813 0.04355394 0.18973717 0.26117977 -0.35736167 0.0057706954 -0.025320923
-0.00015221974 -0.013754043 -0.00061628 0.21100703 0.049706183 0.0016777542 -0.10017321 -0.0003615838
0.05855295 0.021769373 -0.0068663605 0.048787497 0.1507728 0.2888738 0.020160362 0.29182643
0.00013522146 -0.028502906 0.003820864 0.1810068 0.10831815 0.0005428085 -0.13839094 0.010849978
0.036469854 -0.015691446 -0.041263238 -0.13989995 0.07854928 0.12080176 -0.0076304176 -0.17437245
00000000: 4250 4eb9 0716 693d 1d70 11bb a808 003e
00000010: f9e7 8cbe 7e5c 9d3a 6cf4 94be 9bbd 5d3c
00000020: 6d98 fa3d 5376 a13b b838 cf3d 7cce 323e
00000030: b80c 4f3e 0006 16bd db9f 903c 7652 8b3e
00000040: 912e 4e39 6111 723c 4aac b0b9 9989 fab9
00000050: 1844 093d c06b e83a 0464 babd 5f66 703a
00000060: 9616 c7bd 960a a23c e262 373c 1ac4 893e
00000070: dc3c c33d 37b0 8ebe d522 f73a 7309 d93d
00000080: b104 7339 5ef3 943b 9bd1 253a 2aee 753d
00000090: a676 9a3e 44a0 7b3a 6a5d b8bd 30f0 35bc
000000a0: 84ef 103c b55f b9bb 2ca9 08bb 998a 803e
000000b0: 17b0 bebc 7bee 5ebe 94bb 1c3b 0d96 843e
000000c0: 92fb ac39 411f 6cbc 09f2 023b d5bb 12bc
000000d0: 0cc2 503e e961 84bb c5cd 5a3e 1381 393b
000000e0: 606a 2bbd 9c3a d2bc eeb2 993d e436 503e
000000f0: cec9 c7bd 35ac 343e f78d 4ebc d196 9bbe
00000100: 85d6 c3b7 9edf 09bb 32a9 6bb8 15f6 a1bc
00000110: f0aa 333d b3ec 36b9 4272 8c3d c447 1cbc
00000120: 077f fa3c 36a0 80bb 17b3 a93b b03a dbbd
00000130: 40c4 d53d 155b fc3d a66e ccba 4425 2c3e
00000140: e185 da39 ac2b 85bc dcf2 a53a 7ed4 5e3e
00000150: a25c c4be 3e1b a9bb 52aa b43d 2d44 0dbb
00000160: 2662 82bd d4fb 423c 6aca 09bc 9236 873e
00000170: 8925 cb3d 86e7 7cbd f8d8 3c3c 418b 64bc
00000180: db80 7ab9 52db 853b d902 74ba b9c4 7e3c
00000190: 0754 1fbf da94 03ba 1028 a2bc c8d0 153c
000001a0: e0ca b13d 1db6 5939 b14d 203d 5f6a 393b
000001b0: e3b0 933e 3704 00be 4e54 5ab9 ecf7 21be
000001c0: 0ce0 c538 7b90 f3bb e824 9e38 ef37 253e
000001d0: a150 803e 54c6 0c3a 5a53 0abe c1dc 8abc
000001e0: 061e 033b 9f0f a1bb d653 abbc abf8 dbbc
000001f0: d9de f7bc 67ea 24be 5776 4038 576f 643e
00000200: 0d0b b2ba 6703 51bd b5cb 3239 d947 17be
00000210: c127 933e 07a0 46ba a56d b0bd 0330 a8bc
00000220: 811e a43d be56 6e3b b540 95bb 040f c33c
00000230: e994 3d3d bea7 43be fbc8 d73b 331d d8bd
00000240: 6539 f939 6315 4d3c c5ba 8aba 5e51 8c3d
00000250: 6aee 51be 8996 5abb dd14 c7bd 939a 20bb
00000260: ee42 3cbd 3deb 003d 997d 32bb ec70 83bd
00000270: 1d09 b23d a3db 8fbc 6bc3 0bbc 2303 8ebd
00000280: f36d 003a a6d7 f13d 09bf af39 cce6 42be
00000290: a937 22be a3de 7e3b b93e abbd 7248 82bc
000002a0: 600c 173d 4835 523d 113e dcbd 81ea 1e3d
000002b0: 6cb0 b5bd e4d8 e93a b80e 5b3b 36f4 663e
000002c0: b21f fa38 d0e4 643a 0e62 55b9 5a95 0f3c
000002d0: 44f9 ac3e 1461 51ba dfd8 95bd e4d5 0b3c
000002e0: 7c70 d7bc 661f aabb 7c3e b23c f898 80bc
000002f0: 09ac 073e ead2 6cbe a585 1f38 88a4 01bd
00000300: b88a aabb 62ab 6bbd a94f f9ba ae72 ddbd
00000310: 7671 b3be 78b9 a3bc 182b 15be acf5 60bc
00000320: 4533 373e ae3c d6bd 51e0 43be d788 80be
00000330: ecef 30bd 0353 98be 9638 febd 31be 703d
00000340: fafa 7ab9 efe6 103c fb6c 93ba ebdf 163e
00000350: 88d1 d1be 0043 1cb9 1654 07bd 8c4a a93b
00000360: 5622 503d 96bf 3b3b 9e65 323d 764a 423e
00000370: 5bb9 853e 1cf8 b6be 1a18 bd3b d36d cfbc
00000380: 2d9d 1fb9 a358 61bc da8d 21ba 3a12 583e
00000390: b698 4b3d 17e8 db3a 9d27 cdbd f592 bdb9
000003a0: 38d5 6f3d af55 b23c 35ff e0bb 66d5 473d
000003b0: 2f64 1a3e 44e7 933e 5827 a53c 466a 953e
000003c0: 3cca 0d39 ed7e e9bc 7667 7a3b d959 393e
000003d0: e8d5 dd3d 434b 0e3a 5bb6 0dbe 1bc4 313c
000003e0: 6a61 153d 598b 80bc a403 29bd ef41 0fbe
000003f0: 72de a03d ea66 f73d 9508 fabb b18e 32be

cells.1.lin_u.weight f4 [16, 48]
0.029247409 0.04752144 -0.002283255 -0.06270086 0.12731837 -0.031812392 -0.039835438 0.12767614
-0.030686125 0.08137849 -0.07873319 -0.06792513 -0.002814704 -0.00062750856 0.17045358 -0.10226732
-0.096981145 -0.055685706 -0.089191 -0.086867705 -0.105712794 -0.11602977 -0.09541225 -0.062432114
-0.13382827 -0.08043315 -0.12852676 -0.13339995 -0.09646321 -0.05551837 -0.068872005 -0.13422117
-0.09403405 -0.093847685 -0.11534132 -0.080058984 -0.1411157 -0.022082113 -0.06724666 -0.07133635
-0.10287363 0.08792107 -0.119267546 -0.14026016 -0.09116693 0.13165411 -0.11426658 -0.08667662
0.013813106 0.20685089 0.10477398 -0.018749742 0.18510859 -0.07574806 -0.120185345 0.10999361
-0.101193994 0.13219678 -0.19581601 0.009309766 0.079087906 0.01205441 -0.024412123 -0.17191021
0.014247191 0.06397285 0.032166436 -0.02357345 0.015931036 -0.008526598 0.021638328 0.026460227
-0.068719506 -0.097133934 0.05867007 0.014609119 -0.029848708 0.05088725 0.0024795665 0.01765625
-0.105706826 0.0036215456 -0.027826725 -0.19854133 -0.13889436 -0.015402266 -0.023501165 -0.037805386
-0.08090755 -0.08701567 -0.10797882 -0.013067608 -0.11318039 0.21037395 -0.06905502 -0.09562877
-0.0021816639 0.0644343 -0.017374279 -0.058340367 0.07113738 -0.0008674776 -0.022452345 0.11809262
0.0039510927 0.009785849 -0.08403093 -0.07821849 -0.017242702 0.0038291065 0.1280206 -0.099066615
-0.048110574 -0.05099963 -0.070627026 -0.07884876 -0.066953585 -0.059810974 -0.04799739 -0.08302578
-0.0821821 -0.057925154 -0.083196014 -0.046354122 -0.06442634 -0.04720102 -0.0796361 -0.077420175
-0.06216143 -0.06708614 -0.08358068 -0.060848936 -0.094332136 0.0045755235 -0.032898467 -0.080286376
-0.08353768 0.050764725 -0.119121216 -0.100600794 -0.07093432 0.11828886 -0.09781188 -0.06530518
-0.08893552 -0.065664634 0.16766307 -0.09220788 0.12574011 -0.10485045 0.028848493 -0.075516984
0.012826196 -0.11229707 -0.20427102 -0.05560271 -0.113751195 -0.11718279 -0.039984893 0.0074404525
0.3337661 0.14821245 0.22075526 0.08078411 0.22627588 0.11462922 0.34512535 0.13335934
0.19128802 0.30021864 0.22889799 0.090934314 0.17777173 0.2673562 0.24987759 0.31679258
-0.06351247 0.07657697 -0.042126305 -0.20493485 0.083085716 -0.41343507 0.1767624 -0.012580666
-0.06836745 -0.19999255 -0.07534489 0.22218391 -0.23346879 0.38096026 0.025963586 0.13942476
0.009231202 0.10803134 -0.0056792255 -0.07326117 0.093861476 -0.02143831 -0.028349381 0.124106914
-0.014532278 0.042570386 -0.095858835 -0.08372251 -0.0133987935 -0.008830127 0.14625305 -0.06946668
-0.11184196 -0.12082944 -0.064770766 -0.10038493 -0.10060717 -0.064608626 -0.049314067 -0.053120572
-0.07394444 -0.1131932 -0.12291983 -0.107705995 -0.10678528 -0.038049817 -0.077784434 -0.123944364
-0.06744507 -0.07511785 -0.092258774 -0.06867063 -0.094933614 -0.01352535 -0.04808325 -0.09811317
-0.096441194 0.061396305 -0.115117386 -0.10227346 -0.07876736 0.10525042 -0.111653656 -0.075139925
-0.024032725 0.33625668 0.122380085 -0.070092134 0.31816316 -0.061679892 -0.14860745 0.2009479
-0.00067466765 0.027929178 -0.10171112 -0.4349318 0.08427811 -0.12196802 -0.026797771 0.06889196
00000000: 4398 ef3c d7a5 423d aaa2 15bb 4f69 80bd
00000010: bf5f 023e b64d 02bd 7c2a 23bd 89bd 023e
00000020: 7861 fbbc c4a9 a63d de3e a1bd 551c 8bbd
00000030: e676 38bb 637f 24ba 628b 2e3e 8771 d1bd
00000040: 0d9e c6bd b216 64bd c5a9 b6bd b2e7 b1bd
00000050: f37f d8bd 04a1 edbd 7f67 c3bd d1b8 7fbd
00000060: 470a 09be 23ba a4bd 859c 03be ff99 08be
00000070: 818e c5bd 3b67 63bd c40c 8dbd 4671 09be
00000080: ed94 c0bd 3733 c0bd 1238 ecbd f7f5 a3bd
00000090: a280 10be 8ce5 b4bc 9eb8 89bd cb18 92bd
000000a0: 69af d2bd f60f b43d 8b42 f4bd 5ca0 0fbe
000000b0: bab5 babd 56d0 063e 9904 eabd 8383 b1bd
000000c0: 5e50 623c b8d0 533e be93 d63d 0f99 99bc
000000d0: 1b8d 3d3e cd21 9bbd bc23 f6bd 5444 e13d
000000e0: cc3e cfbd 985e 073e fe83 48be fd87 183c
000000f0: d7f8 a13d dc7f 453c effb c7bc 3b09 30be
00000100: 0d6d 693c 3304 833d f4c0 033d 1c1d c1bc
00000110: ce81 823c 25b3 0bbc dd42 b13c 1ec3 d83c
00000120: d0bc 8cbd 28ee c6bd 0750 703d 165b 6f3c
00000130: 4785 f4bc 266f 503d 3980 223b d7a3 903c
00000140: d27c d8bd 7457 6d3b dff4 e3bc 6b4e 4bbe
00000150: 533a 0ebe c959 7cbc 8485 c0bc d2d9 1abd
00000160: dcb2 a5bd 4635 b2bd 0024 ddbd 8519 56bc
00000170: 1fcb e7bd 456c 573e b86c 8dbd 04d9 c3bd
00000180: 3ffa 0ebb 21f6 833d 8154 8ebc 4ff6 6ebd
00000190: 7ab0 913d 7067 63ba fbed b7bc 8bda f13d
000001a0: 2b78 813b d354 203c 6918 acbd 0431 a0bd
000001b0: 9140 8dbc bff1 7a3b d517 033e 70e3 cabd
000001c0: 980f 45bd fde4 50bd e7a4 90bd 757b a1bd
000001d0: f61e 89bd 5afc 74bd e998 44bd 6c09 aabd
000001e0: 174f a8bd ed42 6dbd ac62 aabd d2dd 3dbd
000001f0: f5f1 83bd db55 41bd 4018 a3bd 788e 9ebd
00000200: fc9c 7ebd 7564 89bd 592c abbd bc3c 79bd
00000210: 3531 c1bd 46ee 953b 8bc0 06bd 2f6d a4bd
00000220: ce15 abbd acee 4f3d d3f5 f3bd ca07 cebd
00000230: 0346 91bd 6e41 f23d 9851 c8bd b9be 85bd
00000240: d323 b6bd 2e7b 86bd deaf 2b3e 7cd7 bcbd
00000250: 04c2 003e d5bb d6bd ad53 ec3c a6a8 9abd
00000260: f724 523c 02fc e5bd 6c2c 51be abbf 63bd
00000270: 63f6 e8bd 88fd efbd 33c7 23bd 0acf f33b
00000280: 64e3 aa3e 01c5 173e ab0d 623e 2472 a53d
00000290: ddb4 673e b9c2 ea3d 45b4 b03e 5a8f 083e
000002a0: 02e1 433e 42b6 993e 3c64 6a3e c53b ba3d
000002b0: cb09 363e e9e2 883e e9df 7f3e a332 a23e
000002c0: d312 82bd 63d4 9c3d a28c 2cbd 71da 51be
000002d0: d828 aa3d c3ad d3be 3401 353e 231f 4ebc
000002e0: 3c04 8cbd d9ca 4cbe 6c4e 9abd 2e84 633e
000002f0: 7112 6fbe 390d c33e 96b1 d43c 5dc5 0e3e
00000300: 783e 173c 893f dd3d cc18 babb f409 96bd
00000310: 723a c03d 659f afbc f63c e8bc c42b fe3d
00000320: cb18 6ebc 495e 2e3d a351 c4bd b576 abbd
00000330: 9d86 5bbc 3dac 10bc 5cc3 153e 8c44 8ebd
00000340: 660d e5bd 6d75 f7bd 89a6 84bd 9d96 cdbd
00000350: 220b cebd 8751 84bd 8cfd 49bd f594 59bd
00000360: 2f70 97bd d6d1 e7bd 64bd fbbd f694 dcbd
00000370: 3eb2 dabd 20da 1bbd 724d 9fbd 8bd6 fdbd
00000380: a420 8abd 63d7 99bd 2bf2 bcbd 30a3 8cbd
00000390: 8e6c c2bd 6e99 5dbc f1f2 44bd 8fef c8bd
000003a0: f682 c5bd b17a 7b3d aac2 ebbd bf74 d1bd
000003b0: c850 a1bd 888d d73d acaa e4bd f6e2 99bd
000003c0: 47e0 c4bc d629 ac3e 69a2 fa3d 778c 8fbd
000003d0: 48e6 a23e 0ea4 7cbd 8d2c 18be 49c5 4d3e
000003e0: 2edc 30ba bbcb e43c eb4d d0bd 62af debe
000003f0: 009a ac3d 5fca f9bd 0087 dbbc 3a17 8d3d
