notebooks/models/saved_models/UpDownTrend_TGCN.pt (torch, 29661 bytes, 21 tensors)

cells.0.gcn.convs.0.bias f4 [16]
000000 77 bf 6d bd 57 fd dd 3d 80 43 a1 be 2d 02 44 be
       -0.058043923 0.10839336 -0.3149681 -0.19141455
000010 35 ed 0f be 8a 92 81 bd 60 b5 69 be e2 35 89 be
       -0.14055331 -0.06326778 -0.22823095 -0.26798922
000020 f5 e8 0b be ea 8a 58 be 70 96 8f bd 72 08 91 be
       -0.13663085 -0.21146742 -0.070111156 -0.28326756
000030 89 cb b8 be a0 a6 b9 be d3 39 e9 bd 15 0b 47 be
       -0.36092785 -0.36259937 -0.11387982 -0.19437821

cells.0.gcn.convs.0.lin.weight f4 [16, 8]
000000 ed cc 59 be f8 3b 9d bc 10 b4 b3 3c 6c 4d 1a bf
       -0.21269579 -0.019193634 0.021936446 -0.60274386
000010 c0 77 3c bf 54 22 60 3f ca 2b 05 be d0 8c 52 be
       -0.73620224 0.8755238 -0.13004985 -0.20561528
000020 c1 bd cf be ca 62 5c 3c 0a 55 48 bf e8 ef e0 b9
       -0.40574458 0.0134512875 -0.7825476 -0.00042903353
000030 a9 07 bb be 44 ba cd 3e d7 72 ae bd c0 71 37 3e
       -0.36529282 0.40181172 -0.08517998 0.17914486
000040 ab a2 fc be 68 f0 e8 be 8d 30 b5 be 7b 75 8a bd
       -0.49342856 -0.45495915 -0.35388604 -0.06760689
000050 99 a7 2d 3f 85 39 1f bc ca 33 cc be 9e 94 ea be
       0.6783386 -0.009718304 -0.39883262 -0.4581651
000060 f3 f6 c9 3c 35 8a a0 bc 20 ef 9f be 07 e4 58 be
       0.024653887 -0.019597152 -0.31237125 -0.21180736
000070 87 69 ab bd 3e f6 8a 3e 48 ca 27 bd a1 0d a3 3c
       -0.08369737 0.27140993 -0.040964395 0.01990396
000080 f7 e2 4e 3e 0d f2 4d 3f 1a 4c 50 3e 5d 70 9b be
       0.20203768 0.80447465 0.2034153 -0.30359164
000090 ae 1a 1d be d4 47 4f 3f 29 ee 5f bd 59 fb 06 bf
       -0.15342209 0.80968976 -0.054670487 -0.52727276
0000a0 21 a2 8d 3e b6 18 3c be 18 58 01 3f 60 e5 06 be
       0.27662757 -0.18368801 0.50525045 -0.13173437
0000b0 3b 06 04 bf f6 d2 49 3e f6 94 af bc 8d 06 13 bd
       -0.51572007 0.19709381 -0.021433335 -0.03589492
0000c0 4f f0 61 be c6 18 09 3d eb 83 75 be 05 02 32 bf
       -0.22064327 0.03347089 -0.23976104 -0.6953433
0000d0 19 01 9b be 54 bf 3c 3f d0 78 1e be 4b ca 0f bf
       -0.30274275 0.73729444 -0.15475774 -0.5616805
0000e0 a0 aa 9d be c6 f0 12 bf 44 26 1c 3e bf 83 15 bf
       -0.3079424 -0.5739864 0.15248972 -0.58404154
0000f0 7e aa d0 be a8 68 ce 3e d6 dc b6 be f2 c4 bd be
       -0.40755075 0.4031422 -0.3571536 -0.3706432
000100 78 bf 0f 3e e9 27 92 3f 59 aa ac 3d 3d 95 8e be
       0.14037883 1.141843 0.08430929 -0.27848235
000110 50 2f 14 bf f0 f7 1b 3f 66 6f 1a bd e0 a6 f8 bd
       -0.57884693 0.609252 -0.037703894 -0.12141204
000120 a7 3e 96 be 99 f1 f6 3d c0 fe ea bd 30 28 9f be
       -0.29344675 0.120578 -0.11474371 -0.31085348
000130 20 de 6f 3d 80 5f 03 3f 67 88 8b be 76 03 b4 3e
       0.058561444 0.51317596 -0.27252504 0.3515889
000140 f0 45 64 3e f2 fd 5c 3f cc 9f 9f bd 38 7f 35 be
       0.22292304 0.8632499 -0.07794151 -0.17724311
000150 2f 85 3b be 3e 45 d6 3e 69 9f c4 bc 6c 7f 6b be
       -0.18312524 0.41849703 -0.024001794 -0.22997826
000160 31 5c 13 be 1f 6a b2 3e b9 7a 7b be a6 e2 1d 3c
       -0.14390637 0.3484659 -0.24558534 0.009636557
000170 86 e3 01 3f 95 a8 8a 3e ae ed 6b be 34 fa 2d bf
       0.507378 0.27081743 -0.23039886 -0.67959905
000180 a4 b2 a4 be fb bb 74 be 37 ef d8 bd 06 25 6b 3e
       -0.32167542 -0.23899834 -0.105925016 0.22963342
000190 c5 47 82 3e 1e 51 57 bd 1a cb 1b be ec 05 1a be
       0.2544538 -0.052567594 -0.15214196 -0.15041322
0001a0 72 9f dc be 97 12 cd be be ac 7e be 5b 90 29 bf
       -0.43090397 -0.40053245 -0.24870583 -0.66235894
0001b0 b1 a6 8b be 38 71 bf 3e d2 d2 1a bf a8 1d 2b bf
       -0.27275613 0.37391067 -0.60477936 -0.66842127
0001c0 c5 f5 dd bc a8 9e 91 be 44 f7 19 3f e9 de 21 be
       -0.027094731 -0.28441358 0.6014292 -0.1580769
0001d0 29 3a 4c bf 8f a1 fd 3e bc 5e d7 bd 37 2d 7b bd
       -0.79776245 0.49537322 -0.10516116 -0.061322417
0001e0 78 71 b8 3d 9f 5e 52 3f 35 fd 93 bd 93 9d c8 be
       0.090060174 0.8217563 -0.0722603 -0.3918272
0001f0 ff ba 0d be 72 89 44 3f f0 d3 8d be e6 c1 e9 be
       -0.13840865 0.76772225 -0.27700758 -0.45655745

cells.0.gcn.convs.1.bias f4 [16]
000000 5e 03 a9 bd 8a f5 de be a4 07 a2 be 0f 8a 83 be
       -0.08252595 -0.43546706 -0.31646454 -0.25691268
000010 ed 02 db bd 10 c2 66 3d ea f5 db be bd 83 56 be
       -0.106939174 0.056337416 -0.42961055 -0.20948692
000020 21 26 c8 be c8 e4 65 bd a2 6c 48 bd a8 06 0b be
       -0.3909159 -0.056126386 -0.048931725 -0.13576758
000030 f7 93 d2 bc 52 b9 b9 be 1d 08 fd bd 08 77 55 be
       -0.02570532 -0.362742 -0.12355063 -0.20846188

cells.0.gcn.convs.1.lin.weight f4 [16, 16]
000000 07 39 bb be 2f 75 ff 3d ac 3d 03 bf 1f ce e3 3d
       -0.36566946 0.12473523 -0.5126598 0.11123299
000010 67 09 58 be cd be 12 be 7f c9 3c be 40 3b 05 bf
       -0.21097337 -0.14330597 -0.1843624 -0.52043533
000020 80 ff e1 be 96 e8 b1 3e 23 16 8f be c6 63 ed be
       -0.44140244 0.3474776 -0.27946576 -0.46365184
000030 ce ba 29 be 2d d8 e4 be d8 b1 e2 be dd ef eb be
       -0.16575167 -0.4469618 -0.4427631 -0.4608144
000040 e3 01 34 3e 8e 80 73 bc 4d 41 a9 3e 9f 4e fb 3d
       0.17578845 -0.014862193 0.33057633 0.12270855
000050 25 ab 54 be 49 a4 74 3e 4a 12 fa bc cc 00 00 3f
       -0.20768411 0.23890795 -0.030526299 0.50001216
000060 d0 53 5e bd 35 ae 25 be ac d4 8f be cc ac 77 be
       -0.05427915 -0.16179736 -0.28091943 -0.2418701
000070 db 99 2c 3c 80 64 63 3d 2b 53 f5 3e 12 0e 95 bd
       0.010534729 0.055515766 0.47915015 -0.07278074
000080 80 79 a5 be a5 bf 18 bf f2 60 d7 3e 4a 35 57 be
       -0.3231926 -0.59667426 0.4206615 -0.21016422
000090 0a 2a 04 3d 00 4c 00 bd 9f 57 88 3b 45 5f 31 3e
       0.032266654 -0.03132248 0.004160836 0.17321499
0000a0 1e a4 c4 be 1a 6b be bd 1f 79 0b be e0 51 3c 3e
       -0.3840646 -0.09297772 -0.13620423 0.18390608
0000b0 a2 65 17 3e ea 5d b8 3d ac 24 5a be 0b a2 f4 bd
       0.14784864 0.09002288 -0.21303052 -0.1194497
0000c0 3e 43 a7 bd 90 58 83 be c7 32 17 3f 93 06 8c 3d
       -0.08167122 -0.25653505 0.59061855 0.068371914
0000d0 25 e4 89 be b4 20 b4 3c 17 1e 96 bd 72 7c cc 3e
       -0.26931873 0.02198825 -0.07329958 0.39938694
0000e0 d7 b2 b3 be f7 74 71 be c6 ef 40 be 2f 86 6f 3e
       -0.3509738 -0.23579775 -0.18841466 0.2339103
0000f0 21 55 4e 3e b9 19 e6 3e 48 fc ba 3d 4d c4 8c be
       0.20149662 0.449415 0.0913015 -0.27493516
000100 8c a4 cf be 0f 99 0c bc 5e fe bc be 9c 44 7d 3c
       -0.40555227 -0.008581414 -0.36912817 0.015458252
000110 e7 b2 27 bf 8b 31 45 be e1 38 03 bf 18 53 a4 be
       -0.6550736 -0.1925718 -0.51258665 -0.32094646
000120 c1 b8 cb be 7b d4 80 3e de 05 af be 56 5e 00 bf
       -0.39789394 0.2516211 -0.34184164 -0.50143945
000130 3b a4 b6 bd 7a df c7 be e4 78 01 bf 18 48 19 bf
       -0.08918043 -0.39037687 -0.5057509 -0.5987563
000140 ed ca 1b bf 6e ac 9e 3d 41 35 06 be a4 e0 0f bc
       -0.60856515 0.07747732 -0.13106252 -0.008781586
000150 de ab 1a bf 0a 43 8c be ae 7c 0b bf 43 b7 9d be
       -0.604185 -0.27394897 -0.5448712 -0.3080388
000160 67 97 2f bf 05 c8 9e 3e c7 25 f3 be 6f dd 13 bf
       -0.68590397 0.31011978 -0.4748976 -0.57759756
000170 74 ad 96 bd 9f fa 09 bf f5 e7 ae be d2 0f 3e bf
       -0.07357302 -0.5389804 -0.34161344 -0.7424289
000180 a3 3c d6 be 15 13 f2 be 31 97 39 3e f7 be 1c be
       -0.41843137 -0.47280183 0.18124081 -0.15307222
000190 4a 4b a7 3d aa 44 e7 3b b1 a0 36 be 9f a7 25 be
       0.08168657 0.007057746 -0.17834736 -0.16177224
0001a0 9b 00 64 bd f4 13 dd be d0 68 56 be 05 97 3a 3e
       -0.05566464 -0.43179286 -0.2093842 0.18221672
0001b0 32 c1 b4 3c 5c 98 14 be 50 c6 fb bd 74 d4 26 bd
       0.022064779 -0.14511245 -0.122936845 -0.040729955
0001c0 03 06 3d be 2c bb aa 3d d0 d4 30 3f d2 95 47 3e
       -0.18459325 0.083364815 0.69074726 0.19490746
0001d0 e5 7c 09 be 80 d1 2d 3e c8 23 5b bd b2 1a 81 3e
       -0.1342655 0.16974449 -0.05350092 0.2521568
0001e0 fd 18 fe be 1f ad b6 be 0c 3f aa 3b 17 72 98 bc
       -0.4962844 -0.35678956 0.005195504 -0.01860909
0001f0 6f 42 1f 3e be 4e de 3e d6 e6 fc ba 2d 3b 83 be
       0.15552686 0.4341945 -0.0019294869 -0.25631085
000200 a9 03 dd 3e 50 d6 8b 3a 87 29 73 bd dd a0 17 3e
       0.43166855 0.0010668729 -0.059365775 0.14807458
000210 84 0e a1 3e 5e ea 4a 3d 6e c1 33 3e 5c 38 6f 3e
       0.31456387 0.049539916 0.17554256 0.23361343
000220 4c c7 f7 3d 4b 21 39 3e cb 0b 12 3e 7c 91 6f 3d
       0.1209856 0.18079107 0.14262311 0.058488354
000230 c6 cb 02 be c0 92 fd 3e 74 ee 77 3e e7 04 89 3e
       -0.12773046 0.49526024 0.24212056 0.26761553
000240 bf 04 db be 23 e9 dd 3e d0 6e 16 bf 14 df 06 bd
       -0.42777058 0.43341932 -0.58762836 -0.032927588
000250 ff d2 43 bf 53 18 28 be 09 a9 f2 be c8 f6 8a be
       -0.7649383 -0.16415529 -0.4739459 -0.27141404
000260 52 dd 02 bf 77 e7 9e 3e 38 1f bf be 70 a2 20 bf
       -0.5111896 0.3103597 -0.37328506 -0.6274786
000270 df 35 ab be 60 ed 7d be ba 21 a3 be 0e 1c 2c bf
       -0.33439538 -0.24797583 -0.3186167 -0.6723031
000280 e0 62 d4 be a2 0a c6 3d 03 4f fe be 34 25 07 3e
       -0.41481686 0.09669997 -0.49669656 0.13197786
000290 5d 7e 09 bf 24 fa 86 be 16 87 1b bf c1 6a ef be
       -0.5370844 -0.26362717 -0.60753 -0.46761134
0002a0 19 11 dc be 86 26 a0 3e f0 20 e3 be d0 fa af be
       -0.42981794 0.3127939 -0.44361067 -0.34371042
0002b0 e2 82 5e be 85 49 b8 be a8 0c fd be 04 ba e9 be
       -0.21729615 -0.3599359 -0.49423718 -0.4564973
0002c0 c4 09 a8 be ed b8 ea bd 66 37 bb be fe e4 a2 bc
       -0.3281995 -0.11461053 -0.36565703 -0.019884583
0002d0 cc 1f a0 be f6 66 21 be 19 e5 c6 be df 4e ba be
       -0.3127426 -0.15761933 -0.38846663 -0.363883
0002e0 48 a8 d8 be 65 2f f1 bc 51 bc 88 be 67 1b 2f be
       -0.42315888 -0.029441545 -0.26706174 -0.17100297
0002f0 2d df 22 be 00 78 c8 be 29 e3 b5 be d8 db b9 be
       -0.15905447 -0.39154053 -0.35524872 -0.3630054
000300 a9 57 db be d7 05 60 3e 42 5b dc be 9c 4e 0f 3e
       -0.42840317 0.21877228 -0.43038374 0.13994831
000310 78 ef 07 bf 70 b1 63 be 6a cc c0 be cd 5c ea be
       -0.53099775 -0.22235656 -0.37655956 -0.45773926
000320 91 d3 1f bf 76 8c 55 3e c5 36 98 be cf 3f b8 be
       -0.624322 0.20854363 -0.29729286 -0.35986182
000330 fe de ff bd 8c be 15 bf df 31 08 bf 3b d6 f7 be
       -0.12493704 -0.58493876 -0.532011 -0.48405632
000340 d7 16 aa 3e e0 99 a2 be c8 f3 51 3e de f1 bb 3d
       0.3322055 -0.31758022 0.20503151 0.09176992
000350 1d 22 40 3d bf d9 2e 3e 9a 01 ee 3e 1c e2 89 3e
       0.046907533 0.17075251 0.46485597 0.2693032
000360 15 9e 5f 3e c0 37 d1 bb f9 ce 93 3d 35 6c 12 3e
       0.21837647 -0.0063848197 0.07217211 0.1429909
000370 5b b7 b6 3c 04 7a d9 3e 6e 72 79 3e 37 37 c2 3e
       0.022304228 0.42475903 0.24360058 0.3793275
000380 61 e2 81 be 5f 9e 65 3e 1c ba 86 be dd 03 1d 3e
       -0.25368026 0.22423695 -0.26313865 0.15333505
000390 83 e0 1b bf 5b 21 7d be ed 62 cf be 4b aa ae be
       -0.6088945 -0.24719755 -0.40505162 -0.34114298
0003a0 78 d2 13 bf 89 70 9f 3d 0b 5a f6 be 6b 7d e5 be
       -0.57743025 0.07785136 -0.48115572 -0.4482225
0003b0 b5 bb 05 be 1c e1 0e bf 5b 73 b5 be 1a a7 05 bf
       -0.13059886 -0.5581224 -0.35439572 -0.522081
0003c0 17 6c a7 be f7 0c 30 3d 6c 13 b5 be 8a ac e3 3d
       -0.32699654 0.042981114 -0.3536638 0.111168936
0003d0 de 4e 93 be 74 bb 62 ba 3e 18 9c be f5 74 e4 be
       -0.28771108 -0.00086491485 -0.30487245 -0.4462048
0003e0 65 75 b2 be 46 15 8d 3e eb 3b a2 be 0e 00 9b be
       -0.3485519 0.27555293 -0.3168634 -0.3027348
0003f0 b9 7d 5c be c9 d6 ed be ec 77 92 be f2 64 fc be
       -0.21532334 -0.4645293 -0.28607118 -0.49295765

cells.0.lin_u.weight f4 [16, 40]
000000 c6 80 12 3f 41 6f da bd a4 23 d9 3e bd 21 8c be
       0.5722774 -0.10665751 0.42410004 -0.2736949
000010 03 83 61 3d 46 fa 80 3e 60 7a 24 ba 97 e2 cf bd
       0.055056583 0.25190943 -0.0006274339 -0.101506405
000020 7b 26 1a 3e a9 8c 3d bd 54 6e a6 3b 92 4b 94 bd
       0.15053742 -0.046276722 0.00507907 -0.072409764
000030 b0 75 0b 3e 73 7a b1 3d 60 d7 32 3c d1 76 53 bd
       0.13619113 0.086659335 0.010915607 -0.051626984
000040 8f b8 47 be 90 49 e6 3d 38 58 11 3e ce e7 e6 3d
       -0.19503997 0.112445 0.14193809 0.11274682
000050 34 6b f5 3d 9e 91 4b be e0 82 a2 3d 55 65 06 3e
       0.11983338 -0.19879767 0.07935119 0.13124593
000060 f7 76 35 be a8 b3 8d be 8a 72 20 3e 4d 99 59 3e
       -0.17721163 -0.2767613 0.15668693 0.21249886
000070 3c 70 5d bd 0f 97 16 be 3f 3b 0d be 12 89 0b be
       -0.054062113 -0.14706062 -0.13792132 -0.13626507
000080 a9 d3 0f be e4 3e 0b 3e b3 3f 7c be bc 91 52 be
       -0.14045586 0.1359821 -0.24633674 -0.20563406
000090 ed 18 41 be 1e 99 ab bd e6 0e 20 3d 6a c5 b0 3e
       -0.18857165 -0.08378814 0.03907671 0.34525615
0000a0 3f 5b 68 be f8 fd 76 3e 43 54 ac 3d 36 8e 96 3d
       -0.22691058 0.24120319 0.08414509 0.07351343
0000b0 9a 34 e4 bc 79 6c 13 3f 39 58 b2 3d 43 37 5c be
       -0.027857114 0.5758739 0.087082334 -0.21505456
0000c0 a6 10 4a 3e d5 97 18 be 54 f7 52 be b8 e7 bf be
       0.19732913 -0.1490167 -0.2060216 -0.37481475
0000d0 01 b0 1c bd ab 9e 38 be 3c 06 d9 bb 17 ed a9 be
       -0.038253788 -0.18029277 -0.0066230576 -0.33188698
0000e0 aa 04 df bd a4 51 f7 bd 7e 97 9d bc e1 70 ff 3d
       -0.108895615 -0.120761186 -0.019237276 0.12472702
0000f0 af 86 a1 3c 67 01 25 be cc d6 34 bd bb e8 21 3e
       0.019717542 -0.16113816 -0.04415016 0.15811436
000100 94 02 c5 3e 72 91 08 3f 71 d1 40 3e 39 2e a6 bd
       0.3847853 0.5334693 0.18829896 -0.08114285
000110 d2 9e 06 bf 76 53 d7 be f3 4c cb be 38 01 2e be
       -0.5258609 -0.42055863 -0.39707145 -0.16992652
000120 c9 6a fb 3e 61 c9 80 be 4f f9 b8 be fe 5e 80 3d
       0.49104908 -0.2515364 -0.36127707 0.06268118
000130 59 03 87 be ed d8 d2 3e e6 b3 c4 3e c4 18 fa bd
       -0.26369742 0.41181126 0.38418502 -0.12211755
000140 23 54 ec 3b d0 86 a4 bd e1 4a 05 be cd 5b 39 bf
       0.0072121783 -0.08033526 -0.13016845 -0.724057
000150 ed a8 9e 3b 00 19 09 bf bb 3b 03 bd 2c 27 b1 be
       0.004841915 -0.5355377 -0.032039385 -0.34600198
000160 02 73 d9 be 1f 15 a7 3d 6c 28 02 3e 17 f6 12 3e
       -0.42470556 0.081583254 0.12710732 0.14351688
000170 d2 77 a3 be 45 7e 8b be 76 60 85 3d 2a 65 b4 3d
       -0.31927353 -0.27244774 0.06512539 0.08808358
000180 a3 df 90 3e 11 18 a9 be 75 48 bf be f7 e7 f1 be
       0.2829562 -0.33026174 -0.37359968 -0.47247288
000190 0d b6 ca be 58 f6 8b 3e 64 a0 b8 be 20 fe d0 be
       -0.3959202 0.27336383 -0.36059868 -0.40818882
0001a0 98 98 13 3f bc a8 b9 3a 41 3f 4e 3e 7f c0 82 be
       0.57654715 0.0014164667 0.20141317 -0.25537488
0001b0 be 81 79 3d 34 c0 9d bd 27 a7 37 be 79 48 c9 3e
       0.060914747 -0.077026755 -0.17934857 0.39313105
0001c0 14 f3 2d be b8 5a 53 bf 04 c4 35 be af b2 db be
       -0.16987258 -0.825603 -0.17750555 -0.42909762
0001d0 be c9 97 be de 18 86 bd 88 a8 85 3d 0c 10 18 bf
       -0.29646105 -0.06547712 0.065262854 -0.59399486
0001e0 f3 28 3d 3f 25 a2 6f bf 69 16 86 bf 9f c3 f7 be
       0.7389061 -0.9360679 -1.0475589 -0.48391435
0001f0 e6 a3 5b bd 1c 35 25 be 57 bc 82 bd eb f0 e2 bd
       -0.053623103 -0.16133541 -0.06383579 -0.11081108
000200 f8 a6 1f be b6 aa 82 3e c3 5f 4e 3e a7 df fb 3e
       -0.15591037 0.25520867 0.20153718 0.4919407
000210 66 8a 20 be 05 11 2f be 02 ef 21 be e6 06 ed 3e
       -0.15677795 -0.17096336 -0.1581383 0.46294326
000220 fc c8 3e 3e 73 7e b5 bd 76 82 2b be fc 70 67 be
       0.18631357 -0.08862009 -0.16748986 -0.22601694
000230 46 8c 1c be f3 61 7a 3e 02 23 06 be b9 c0 36 be
       -0.15287885 0.24451427 -0.13099292 -0.17846955
000240 e0 dd 09 be 04 e6 03 3f ee 09 1d 3e 0a ae 9f 3c
       -0.13463545 0.5152285 0.15335819 0.019492168
000250 91 55 09 bf e9 3d 96 bd ed 63 10 be 5a cb 7e bd
       -0.5364619 -0.07336027 -0.14100619 -0.06220565
000260 5f 29 48 3e 4c 99 3c 3e c3 a1 da bd ed e0 f2 3d
       0.19547032 0.18417853 -0.10675385 0.118593074
000270 59 70 8b 3d 6f 38 68 3e da e9 a3 3d e9 07 1f 3e
       0.06808538 0.22677778 0.08003588 0.15530361
000280 45 b0 dc be fb 88 34 3f 9c 53 5d be 29 7c b3 3e
       -0.43103233 0.70521516 -0.21613926 0.35055664
000290 64 e1 8b be 13 0e f7 3e 17 c6 8d 3e a2 41 7e 3e
       -0.27320397 0.48252925 0.27690193 0.24829724
0002a0 d4 b9 4d 3e 49 c8 ba 3d 07 a9 ae 3b ad 8f ab bd
       0.20090419 0.091202326 0.005330208 -0.08377013
0002b0 3b 05 ac 3d 36 d7 fc 3c 43 18 14 3e 7f 2a 8f bc
       0.08399435 0.03086434 0.1446238 -0.017476318
0002c0 59 d2 a6 3e c7 82 2c 3e 92 b1 d9 3d e2 3c 07 3e
       0.32582358 0.16846763 0.10629572 0.13206819
0002d0 67 6c f8 3d 51 8b 89 3e 87 a0 d2 3d 50 bd 37 3e
       0.12130051 0.26864102 0.102845244 0.1794331
0002e0 6b 27 9b bb ba ea 18 3f 88 50 82 3e bd e7 06 be
       -0.0047349236 0.59733164 0.25452065 -0.13174339
0002f0 f2 c8 2e bf 13 14 0f be 53 67 07 be ec 8d c7 be
       -0.6827537 -0.13972501 -0.13223009 -0.38975465
000300 6c ad 19 3d 0d 84 bd bd da 97 4a bd d4 0a 22 3f
       0.037518904 -0.09253702 -0.049461223 0.6329777
000310 e7 3b 93 3e 8f 12 e4 3d e3 7c 36 3f 3b 6c 90 bc
       0.2875664 0.11136352 0.7128431 -0.017629733
000320 45 94 09 3f 3b 1b e7 be c1 2f 83 3e d8 6c 34 be
       0.53741866 -0.45137963 0.2562237 -0.17619646
000330 a2 4b 75 3e 62 68 09 3e 10 13 b7 bd e1 ec 69 3d
       0.23954633 0.13418725 -0.08939183 0.05711067
000340 b9 e7 0e 3e b4 01 fc 3c 23 2f 1e 3e e9 84 34 3e
       0.13955583 0.03076253 0.15447669 0.17628826
000350 91 32 ae 3d 8a c0 41 3d 9d 56 f1 3b 96 3b 06 3e
       0.085057385 0.04730276 0.0073650614 0.13108668
000360 bf 2a 6b be ae 01 66 3d 4b f5 04 3e 37 61 0d 3e
       -0.22965525 0.056153946 0.12984197 0.13806616
000370 3a 2c e5 3d cd 19 e3 bd ed ce 8c 3d 72 d0 05 3e
       0.11190076 -0.110889055 0.068754055 0.13067797
000380 f5 bf 89 3c ae 4c 62 bd e5 20 8c 3e 1a c2 12 be
       0.016815165 -0.05524891 0.27368847 -0.14331856
000390 20 b9 f7 be c3 94 fb 3d fe 9f 52 3e 55 3b d9 be
       -0.48383427 0.122842334 0.20568845 -0.4242808
0003a0 30 3a 9f be 6b b0 34 3e 1e 5d bf 3d 55 fe e0 bd
       -0.3109908 0.17645423 0.093439326 -0.1098601
0003b0 b0 00 26 be c5 34 e4 3e ee 08 af 3e 9e fe d7 bb
       -0.162112 0.4457151 0.341865 -0.006591632
0003c0 bf 33 dc 3e 57 e3 87 be fe 87 e6 3e 47 a6 42 be
       0.4300823 -0.26540634 0.4502563 -0.19008742
0003d0 4a 3e 99 3e 9d 2a bd bc e4 19 fc 3d b1 cb 93 3c
       0.29930335 -0.023091609 0.12309626 0.018041464
0003e0 ed ad 8c 3e 9b f3 0c 3e a6 e4 30 3e 6b b8 0a 3e
       0.27476445 0.13764803 0.17274722 0.13546912
0003f0 a8 3e 67 3e 41 e7 23 3e 22 7c 5f 3d 65 3d 25 3e
       0.22582495 0.16006185 0.05456174 0.16136701

cells.0.lin_u.bias f4 [16]
000000 79 84 95 bd d7 4d ad 3d 14 9f 04 bc e8 ed 1b 3d
       -0.07300658 0.084621124 -0.008094568 0.038068682
000010 08 9d bb 3e ae 44 9c bd cc 89 e4 bd 63 4a 4c 3e
       0.36643243 -0.07630287 -0.11159095 0.19950251
000020 89 7a ca 3e c5 44 8d 3c ac 0a cb bc 72 bf 88 3e
       0.39546612 0.017244706 -0.024785362 0.2670856
000030 c0 ce 99 3e ad b5 5e be 57 e4 d0 3e 1e 81 48 bd
       0.3004055 -0.21748991 0.4079921 -0.04895126

cells.0.lin_r.weight f4 [16, 40]
000000 39 9d 80 be a6 ef 8e 3e 25 b4 78 be ad 99 fc bd
       -0.2511995 0.27917212 -0.2428747 -0.12333999
000010 37 22 da bc 2d 35 5f be 94 9e 99 3e a0 a6 93 3d
       -0.026627643 -0.21797629 0.30003798 0.072095156
000020 30 6c 53 3e 37 2f 70 3e c5 e5 81 3e 71 51 79 3e
       0.20646739 0.23455511 0.25370613 0.24347474
000030 7f 5c 3f 3e 1d 6f 38 3e 71 d0 7d 3e 79 6a 81 3e
       0.18687628 0.18011136 0.24786545 0.25276545
000040 d0 ee a0 3e 57 94 54 3e 44 f7 3f 3e 2d 07 4a 3e
       0.314322 0.20759712 0.18746668 0.197293
000050 80 0b 49 3e c4 bb a0 3e a5 81 46 3e 68 f4 53 3e
       0.19633293 0.31393254 0.19385393 0.20698702
000060 e7 9b 81 bd 5d a9 32 3e 8d bc 06 3e 7c b4 fd 3d
       -0.06328564 0.1744742 0.13157864 0.1238794
000070 bd a1 9d bd fa 10 a4 3c 99 08 26 3d 6f 20 60 bd
       -0.07696865 0.020027626 0.040535543 -0.05471843
000080 e7 40 83 3d da 4f 6e be fa 81 fa bd d7 94 6d bd
       0.064088635 -0.23272648 -0.12231822 -0.058003273
000090 f1 c3 0c 3e ee f8 00 be 71 c4 4d 3e 6f de db 3b
       0.1374662 -0.12594959 0.20094468 0.0067098658
0000a0 70 72 f2 be 21 93 bf 3d ab 2e 1b 3f 4e 71 df 3e
       -0.47352934 0.093542345 0.60618085 0.43641132
0000b0 5e 15 42 3e 7d b5 78 3f a7 68 5c 3e 21 e6 87 bd
       0.18953463 0.9715193 0.21524297 -0.066356905
0000c0 d9 ba 02 3e e6 4b 7b 3d e2 29 3e 3d 89 38 ab bc
       0.12766589 0.06135168 0.04642666 -0.020900982
0000d0 ba c7 8c 3d e2 ee 51 3d 6e 17 ec 3d cc 96 65 bd
       0.06874032 0.051253207 0.11527906 -0.056052014
0000e0 3d 48 b6 3d 97 5b b9 3d ef a5 b2 3d 53 78 ed 3d
       0.08900497 0.090506725 0.087230556 0.11595216
0000f0 44 97 b5 3d 18 af d3 3c 0c 30 a7 3d ed a8 f7 3d
       0.08866742 0.025840327 0.08163461 0.12092767
000100 4a 6d 3f 3e 99 7d 51 3d c6 05 e9 be 7b e1 70 3e
       0.18694034 0.05114517 -0.45512217 0.23523514
000110 4b ac 67 3e 0a b8 a8 be f2 ce bd be 4b 37 17 3e
       0.22624318 -0.3295291 -0.3707195 0.14767186
000120 69 13 85 bd 65 64 a7 3d 20 3c 76 bd fd 81 f4 bd
       -0.06497843 0.081734456 -0.060115933 -0.11938856
000130 54 bd 99 bd 2c f1 52 3e f1 3a 21 be 29 a2 35 3e
       -0.075068146 0.20599812 -0.1574514 0.1773764
000140 9b e7 73 be 1e 8b a9 bd 59 62 28 3e 95 63 bf bd
       -0.23818819 -0.082784876 0.16443767 -0.09345166
000150 1c f4 34 bf eb 94 22 3f ee a9 fc bd 5d a9 61 bd
       -0.7068498 0.6350848 -0.12337099 -0.055093158
000160 de da f3 be b2 96 39 bd 1b 62 3a be 78 97 89 be
       -0.4762792 -0.04530973 -0.18201487 -0.26873374
000170 89 87 e9 be 4c fc ec be e0 65 aa bd 01 11 8d be
       -0.45611218 -0.46286237 -0.08320212 -0.27552035
000180 cf f9 00 3e 32 af d3 be 79 da e1 be e0 67 f4 be
       0.12595294 -0.413446 -0.44111994 -0.477355
000190 0e 52 ea be 6d 62 05 3e 7d 58 df be 51 fe eb be
       -0.45765728 0.13025828 -0.436222 -0.46092466
0001a0 7c b1 ca 3e f2 94 40 3f af 64 ab be 51 f7 07 bc
       0.39588535 0.7522727 -0.33475253 -0.008298711
0001b0 b8 65 07 be 34 b9 18 bf 8e 20 21 bf 52 9d 9b 3d
       -0.13222396 -0.596576 -0.629403 0.07598366
0001c0 3c 82 43 bc ed 31 4d bf 46 a8 18 be 3a cd 4c 3e
       -0.011932906 -0.80154306 -0.14907941 0.20000163
0001d0 70 7d b2 be d6 ed ea 3e df 5c 0b 3e dc 5a 55 be
       -0.34861326 0.4588458 0.13609646 -0.20835441
0001e0 c1 2e a9 3e 46 66 7b 3e c3 d8 bf be a3 ae bf bd
       0.33043483 0.24550733 -0.37470064 -0.09359481
0001f0 d3 50 d3 be c6 12 cf 3d cc 29 d2 3d 0c 5d 99 be
       -0.412726 0.101110026 0.10261878 -0.29953802
000200 d1 9a b3 bd cb fa 04 3e fb 95 34 3d 8e 8d d7 3d
       -0.08769763 0.12986295 0.044088345 0.10525046
000210 0f ce 19 be 74 cc 4d be 38 60 8d 3d ae 8a 10 3e
       -0.15020011 -0.20097524 0.06903118 0.14115402
000220 31 2b 59 3e aa e2 31 be 29 7a 17 be d3 db 3e bd
       0.21207882 -0.17371622 -0.14792694 -0.04659636
000230 12 82 0d be b6 47 4e 3e 49 9d 07 be 82 93 87 bd
       -0.13819149 0.20144543 -0.13243593 -0.06619932
000240 b6 69 1c bc 6e e1 01 3e c6 c6 e7 3e 3a be 87 bd
       -0.009546688 0.12683651 0.4526884 -0.0662808
000250 63 07 58 bd d3 0b 77 be 23 94 c9 be 97 cf bf be
       -0.05274142 -0.24125604 -0.39370832 -0.37463066
000260 70 da 22 bd d2 5e eb 3c fd 69 2a be 0a 99 0d 3e
       -0.0397591 0.028731737 -0.16641994 0.13827911
000270 19 8d 92 3d 89 13 74 3e 12 73 22 3e c0 e8 30 3e
       0.071558185 0.23835577 0.15864208 0.17276287
000280 44 38 49 be be 8d c4 3c fd 30 4d 3f b0 8b cb 3e
       -0.1965037 0.02399337 0.80152875 0.3975501
000290 6c 6b d8 3e a3 c5 96 bd 7d a6 37 3d 9a 0f 13 be
       0.42269456 -0.07361915 0.04483651 -0.1436142
0002a0 f3 9c 6d 3e 08 f6 c6 bd 7b 9a 01 bd 30 44 1a be
       0.23204403 -0.097148955 -0.031641465 -0.15065074
0002b0 52 c0 60 3e 36 c3 68 3e 52 e4 5e 3d 80 4f 2a be
       0.21948364 0.22730717 0.054416962 -0.1663189
0002c0 91 6e 28 be da 52 52 3e 61 c6 6e 3e 92 d4 67 3e
       -0.16448428 0.20539418 0.23317863 0.22639683
0002d0 ce 6e 61 3e 6f 6e 47 be b7 fc 4b 3e 1b ec 56 3e
       0.22014925 -0.19475721 0.19920622 0.20988505
0002e0 49 e5 e9 3d fc 43 23 be 85 fe 6d be d6 71 6f 3d
       0.11420686 -0.15943903 -0.23241623 0.05845817
0002f0 6e 6a d3 3e 78 9d 5e 3c 67 92 f6 3c b6 2c 56 3c
       0.41292137 0.013587348 0.030099107 0.013072183
000300 6c cc 6b 3e e9 53 3f 3e 94 bf de bc b3 9e b4 be
       0.230272 0.18684353 -0.027190961 -0.35277328
000310 34 23 77 bd ac 6c 43 3e e6 2e e1 be 15 e8 e4 3d
       -0.060336307 0.19084424 -0.43981093 0.11177079
000320 ce 1d e3 bd 30 f7 51 be 10 8a e3 be d9 86 4c 3e
       -0.11089669 -0.20504451 -0.4444127 0.19973315
000330 98 87 c1 3d 5f f9 aa 3e 96 73 39 3e 8d 4a 09 3d
       0.094496906 0.3339338 0.18110499 0.033518363
000340 b5 cb 33 3e 0b 60 94 3d 61 a7 82 ba 14 b8 36 3d
       0.17558177 0.07244881 -0.0009968096 0.044609144
000350 84 48 66 3e d0 8d 6e 3e 47 0f 6d 3c c7 0f 81 3d
       0.224886 0.23296285 0.014468974 0.063018374
000360 8f 4f 06 bd c2 15 56 3e 95 ff 6a 3e 6a e4 67 3e
       -0.032790717 0.20906737 0.2294906 0.22645727
000370 ab 1f 3e 3e e4 c2 15 3d 16 86 39 3e 4e 53 46 3e
       0.18566768 0.036562815 0.18117556 0.19367716
000380 e0 5a 9b be b6 d4 5c be dc a3 d8 3e 05 ee d5 bc
       -0.3034277 -0.21565518 0.42312515 -0.026114473
000390 ea 28 98 bd 2e b7 ee 3c 6e f7 87 3d be f2 31 be
       -0.07429679 0.029140081 0.0663899 -0.17377755
0003a0 03 9f 6e be c0 0d 5a be 0e 6f 0c 3d 94 1e 54 bd
       -0.23302846 -0.21294308 0.034285598 -0.051786974
0003b0 72 3b dd 3d f6 dd 90 be 94 94 7f 3e 1e 31 61 3e
       0.10802354 -0.28294343 0.24959022 0.21991393
0003c0 06 46 27 be 24 9a 27 bf 78 f4 6c 3e e5 3c c5 3e
       -0.16335306 -0.65469575 0.23140132 0.3852302
0003d0 54 18 ae 3e c2 a0 d2 3e 01 64 0e 3e 1b 8c b4 bc
       0.34002936 0.41138273 0.13905336 -0.022039464
0003e0 33 5a 54 3d 81 e0 af 3d 59 59 9a 3d 7f 88 dd 3d
       0.051843833 0.085877426 0.07536573 0.1081705
0003f0 b1 74 b6 3d ad f4 f6 3d 64 46 a2 3d c2 49 b6 3d
       0.08908976 0.12058387 0.07923582 0.08900787

cells.0.lin_r.bias f4 [16]
000000 e1 a9 b4 3e da f0 fe 3d 8a d5 36 be 3e a4 e8 3d
       0.35285857 0.124482825 -0.17854896 0.11359452
000010 1d 36 06 bd 35 2a 0d 3e 1c 6f 6a 3d e6 a9 1d be
       -0.03276645 0.13785632 0.05723487 -0.15396842
000020 e4 f4 67 3b e0 90 87 3e b8 9c 12 3e 5a 25 39 3d
       0.003539377 0.26477718 0.14317596 0.045201637
000030 e0 1e 35 bd ca c5 4b bc f2 2e 33 bc a3 f2 ec bc
       -0.044218898 -0.012437293 -0.010936486 -0.028924292

cells.0.lin_c.weight f4 [16, 40]
000000 a4 72 c8 be 1a ed b2 be 1f 8a 7e 3e dc 9d 9b be
       -0.39149964 -0.3494652 0.24857377 -0.30393875
000010 4e a8 2d 3d b7 ea 05 bd a0 dd 92 bd 20 8d 4f 3c
       0.042396836 -0.032694545 -0.07171178 0.012667924
000020 fc 4f 64 be e0 78 d4 3d b6 1a d4 3d 80 14 90 bd
       -0.22296137 0.103746176 0.10356657 -0.0703516
000030 09 b4 4d bd b2 10 22 be cc c8 86 3d 89 93 08 3e
       -0.050220523 -0.15826681 0.06581268 0.1333753
000040 69 5d 31 3e 47 18 4f be f9 a3 29 be 30 9f 14 bd
       0.1732079 -0.20224105 -0.16566457 -0.036284626
000050 84 1f 67 bd 40 d6 6c 3c d3 d0 95 bd f2 ec c9 bd
       -0.05642654 0.014455378 -0.07315221 -0.09859647
000060 64 0e 8d bd 2b f1 bd 3e b3 67 92 be 0c d1 d3 3e
       -0.068875104 0.3709806 -0.2859474 0.41370428
000070 dd e9 9b bd 61 b9 4e 3e 61 f5 72 3e f0 ef 95 3e
       -0.07612965 0.20187904 0.23726417 0.2928462
000080 d1 f9 90 3e 4e 58 82 be 1e 38 ae 3e 96 c6 8c be
       0.28315595 -0.25457996 0.3402719 -0.2749526
000090 29 79 5c be 4c 26 4f 3e bc ca 70 3c 29 3f 4a 3c
       -0.21530594 0.20229453 0.014696773 0.01234416
0000a0 02 77 28 be fc 36 ff be 24 f9 06 be d4 da 3d 3e
       -0.16451648 -0.49846637 -0.13180977 0.18540508
0000b0 4c d9 8b be 5f 99 56 be 49 a9 2e be 8e df c2 3e
       -0.27314222 -0.20956944 -0.17056765 0.38061184
0000c0 58 18 34 be 0d b0 04 bd ec a6 a9 3d 1e 71 ed 3d
       -0.17587411 -0.032394458 0.08283791 0.11593841
0000d0 67 b1 29 be b2 39 95 bd d7 8a b0 bd 89 82 c3 3b
       -0.1657158 -0.07286395 -0.086202316 0.0059664887
0000e0 eb 2c f5 3c 29 e8 84 be 36 e8 56 be c9 d8 3b be
       0.029928645 -0.25958374 -0.20987019 -0.18344416
0000f0 a5 56 8d be 9c a9 0e 3e ed 5c cb bd 4a 03 09 be
       -0.27605167 0.13931888 -0.099298336 -0.13380161
000100 47 08 89 be e2 09 72 3e 2e a3 54 bd 5c 04 22 bc
       -0.26764128 0.23636582 -0.051913433 -0.009888735
000110 42 1f a8 be 45 8f d3 3e ee 24 42 3f 22 ef dd 3e
       -0.32836348 0.41320243 0.758376 0.43346506
000120 e5 a2 d2 3e c5 4c 85 3e a4 8a ca 3e 51 99 c3 3e
       0.41139904 0.26035133 0.395589 0.3820291
000130 6f 4a ba 3c 90 53 06 3e 41 39 52 3d 74 cd a6 3d
       0.02274057 0.13117814 0.051324133 0.08144656
000140 ef 43 ff 3e 13 50 9b be 51 ff ca be b6 42 ad bd
       0.49856517 -0.3033453 -0.39647916 -0.0845999
000150 64 bf 1c bd 8e 57 82 3d f3 bf 9e 3d 19 38 85 be
       -0.03826846 0.06364356 0.07751455 -0.26019362
000160 76 8f 74 3d ed cc d9 bd 40 9d 82 bd ff 53 b8 bc
       0.059707128 -0.106347896 -0.06377649 -0.02250099
000170 ce d4 96 3d de e6 8c 3e d4 f6 24 be 07 a2 b6 bd
       0.07364808 0.27519888 -0.16109782 -0.08917623
000180 09 9c 38 bd a2 38 47 3e 9e 4b 34 3e ae 30 e9 ba
       -0.04507068 0.19455197 0.1760697 -0.0017790997
000190 77 b6 17 3d 9e 7d b0 bd 7c d9 f8 3d 0a fd 09 bd
       0.037039246 -0.086177096 0.12150857 -0.033688582
0001a0 cf 9d 93 be f9 ec c6 be f3 c4 c3 3e f3 23 72 3e
       -0.28831336 -0.3885267 0.38236198 0.23646526
0001b0 3f 41 ca 3e 16 f4 87 be e3 97 a2 be 43 01 25 bf
       0.39502904 -0.2655341 -0.31756505 -0.6445505
0001c0 25 ab b1 be dc 58 99 3e ad 95 39 be cd 45 55 be
       -0.34700885 0.29950607 -0.18123503 -0.20827408
0001d0 0f fa 8d 3e c4 30 1e bd 6a 6c 7e be 96 51 c8 3d
       0.27729842 -0.038620725 -0.24846044 0.09781186
0001e0 ce 9c 0a 3e cf 68 2e be 80 0a 86 be 23 00 34 3e
       0.13536379 -0.17032169 -0.26179886 0.17578177
0001f0 0a 0d a6 3d 68 df 4a 3e 3c 96 0e be ab 15 77 3e
       0.08107956 0.19811785 -0.13924497 0.2412936
000200 9a 08 74 3e da 8d b6 bd 70 28 1a be 6f f8 b6 bd
       0.23831406 -0.08913775 -0.15054488 -0.08934104
000210 09 6d fd 3d f6 82 5f 3e bf bd 5a bc 22 55 d1 3d
       0.123743124 0.21827301 -0.013350903 0.10221316
000220 ba 33 15 bd 0e 46 38 3e ca 37 1d 3e af fd 34 3c
       -0.036426283 0.17995474 0.15353313 0.011046811
000230 4e 28 81 3e 00 dd 86 be 3a 71 3e 3e 21 97 7c 3e
       0.25226063 -0.26340485 0.1859788 0.24667026
000240 f0 ff 23 be b4 44 a5 bd 76 02 a8 be cc 56 b6 bc
       -0.16015601 -0.08069745 -0.32814378 -0.022258185
000250 20 b2 99 3c eb c4 c6 3e 4a 22 01 3e 95 5c 92 3e
       0.018761694 0.3882211 0.12610736 0.2858626
000260 a1 c6 d2 3e f6 3f b1 3e 20 a0 dc 3e 01 a3 b3 bd
       0.41167167 0.3461911 0.43090916 -0.08771325
000270 6e fa 98 be 44 4f 10 3f c4 ce 99 be 0e 9c 05 bc
       -0.29878563 0.5637095 -0.30040562 -0.008154882
000280 65 a7 92 be 72 f1 2f 3f f4 8c 12 be ab 5c 54 be
       -0.28643337 0.6872779 -0.14311582 -0.20738475
000290 60 ff 8e 3c 6e 0f 88 3d 65 12 74 3d 9f 7d af 3c
       0.017455757 0.06643568 0.059587855 0.021422205
0002a0 83 31 02 3e 76 00 93 3c 2d 7a 20 3d e7 f3 cf bd
       0.127142 0.017944556 0.039179016 -0.101539426
0002b0 16 f2 30 bd cb 0a 9a bc 41 a3 25 bd 50 77 42 bd
       -0.04319962 -0.018803975 -0.040438894 -0.047477067
0002c0 af e9 0b 3d 94 3a 40 3e 11 53 60 3e b9 82 0e bd
       0.034158405 0.18772346 0.21906687 -0.034792636
0002d0 a8 4e af 3d 10 ca 76 3d 3e f2 38 3e 2b cc 6e 3d
       0.08559924 0.060251296 0.18061158 0.05830018
0002e0 86 2c a2 3d d4 ed 08 3e 9a 77 1d be 52 75 5b 3e
       0.079186484 0.13371974 -0.15377656 0.21431473
0002f0 65 d7 71 be b3 ad 5b be 9e 6d ca be 96 06 a5 3e
       -0.23617323 -0.2145298 -0.39536756 0.32231587
000300 a3 64 96 3d 69 b4 2b bc 3f ea 2b bf e6 f8 e4 be
       0.07343414 -0.010480025 -0.67154306 -0.44721144
000310 5d 26 fe be 5a f7 72 be e4 80 a8 3e f4 3c 33 bd
       -0.49638644 -0.2372717 0.32910836 -0.0437593
000320 5f 52 2d 3e 87 17 d9 3e 45 5c d0 3d 9d 39 7d bd
       0.16925953 0.42400762 0.10173849 -0.061822522
000330 e2 df f1 3c 1f 38 6f be e3 b8 c2 bc ca e6 fc 3c
       0.029525701 -0.23361252 -0.023769801 0.030871768
000340 80 4c b4 3d b5 7a 49 be bd 15 c3 bd 3c 9f b8 be
       0.08803654 -0.19675715 -0.095256306 -0.36058986
000350 f4 08 5b 3e 6e 6d 80 3e 54 f9 32 bd 2b 88 47 be
       0.21390134 0.25083488 -0.04369481 -0.19485538
000360 8c 14 57 be 0c 40 5c 3d 00 f1 9d 3d f4 82 25 3e
       -0.21003932 0.053772017 0.07711983 0.16163236
000370 0b 2e 5e 3e 0a 6d 8d be 09 fb c6 3d 89 2e a2 3d
       0.21697251 -0.27622253 0.0971585 0.07919032
000380 5c 33 0b be d2 d2 46 bd 1b 29 ff 3e 02 ba 19 3c
       -0.13593811 -0.048540898 0.49836048 0.009382727
000390 cc 1d 57 3e 96 39 81 be 8d b3 51 3e ca 4f bc be
       0.2100746 -0.25239247 0.2047865 -0.36779624
0003a0 1a 2b a4 bd d9 c7 11 3f d0 61 3b be f6 06 4d be
       -0.080160335 0.5694557 -0.18299031 -0.20022187
0003b0 50 6e dd 3e 46 37 ef be e6 82 8a be 82 51 c6 3e
       0.43248224 -0.46721858 -0.27052993 0.3873406
0003c0 5e 9e 28 3e f0 1a f2 3e a5 33 d6 3c ab d0 ef 3d
       0.16466662 0.47286177 0.026147673 0.11709722
0003d0 eb 8d 36 bd 6f 3f 81 be e3 6b cb bd 77 ea 39 3d
       -0.044568937 -0.25243708 -0.09932687 0.04538962
0003e0 82 58 3c 3e a0 fb 80 be ad b2 f6 bd c9 ae 90 be
       0.18393138 -0.25191975 -0.120457985 -0.2825835
0003f0 1b 58 6d 3e 21 0a d2 3e d7 57 51 bd f4 ed a3 be
       0.23178141 0.41023353 -0.05110916 -0.3201748

cells.0.lin_c.bias f4 [16]
000000 7c e4 bc 3c c1 c9 08 3c ba d5 24 3e b2 ac e0 3c
       0.023058169 0.008348883 0.16097155 0.027426098
000010 48 80 51 3d ac 7f a8 3c b4 9e 7c bd db dd 59 bd
       0.05114773 0.020568691 -0.06167479 -0.053190093
000020 2d 31 21 3e 7f 13 86 3d 91 04 dd bd 02 53 1b 3b
       0.15741415 0.06546687 -0.107918866 0.00237006
000030 ff 2c b4 bd 68 6e c6 bd 71 01 07 3e cc b7 b0 3d
       -0.08797645 -0.09689027 0.13184144 0.086288065

cells.1.gcn.convs.0.bias f4 [16]
000000 47 1d b8 bb 31 dc a2 3e fb 13 2d bc 22 f7 a4 bd
       -0.0056187245 0.31808618 -0.010563846 -0.08054949
000010 9b f8 09 3e 02 61 37 3d 50 eb 83 bc 22 2f 09 bd
       0.13473742 0.04477025 -0.016103417 -0.033492215
000020 65 63 85 b3 ca c1 d1 3e fe c0 81 3c 6c 8b 07 3c
       -6.211375e-08 0.40968162 0.015839096 0.008272987
000030 e9 da d3 3e 68 7e 6e 3c 9d 19 d3 b8 27 14 0c 3d
       0.41377953 0.014556505 -0.00010066035 0.034198906

cells.1.gcn.convs.0.lin.weight f4 [16, 16]
000000 7b 22 0e 38 45 92 a3 b8 ed c6 d5 b9 d6 37 c5 38
       3.388755e-05 -7.7996905e-05 -0.00040774737 9.404092e-05
000010 6c 38 04 b8 4e df 85 b8 61 80 3e b8 83 11 40 39
       -3.15238e-05 -6.383528e-05 -4.5419092e-05 0.0001831707
000020 4e 32 1b b8 2f 4e b4 b9 b0 a6 4d b9 82 05 8c b8
       -3.700173e-05 -0.00034390527 -0.0001961242 -6.676746e-05
000030 93 72 d2 b7 5c d2 c5 b9 c5 c2 83 b8 e2 0a aa 36
       -2.5087304e-05 -0.00037731498 -6.2828454e-05 5.0676617e-06
000040 fe b0 7f 3e f2 6a d7 3e 13 e0 1a bf 37 6f 8a 3e
       0.24969861 0.4207378 -0.6049816 0.27037975
000050 82 0e 84 3e a9 f8 37 bf af 22 15 bf 97 76 49 3e
       0.2579232 -0.718638 -0.5825605 0.19674145
000060 7b 60 d6 3e 0e 26 c9 be c2 47 47 bf e1 31 ed be
       0.41870484 -0.39286846 -0.7784387 -0.46327117
000070 64 10 0d bf cb a9 1b 3e df f6 0b bf be 98 b8 3d
       -0.55103135 0.1520149 -0.5467357 0.09013508
000080 f5 ae 17 b9 56 7f be b8 81 10 b0 b9 4c 4d d3 38
       -0.00014465659 -9.083624e-05 -0.00033581632 0.00010075662
000090 79 4e b1 b8 21 a8 a8 b9 8e 99 ad 38 cf ff 0c b6
       -8.4546344e-05 -0.00032168723 8.2778846e-05 -2.1010526e-06
0000a0 cc 72 71 38 01 58 d5 b9 b9 0d 94 b8 db c1 16 39
       5.756579e-05 -0.00040692094 -7.059746e-05 0.00014377332
0000b0 a0 03 04 ba 7d 88 0a ba d1 a2 bc 39 2c 00 aa 38
       -0.00050359406 -0.00052846206 0.00035979462 8.106264e-05
0000c0 d1 08 98 bc 49 4b d3 bd 74 00 f4 bc 87 7b a6 3d
       -0.018558891 -0.10317094 -0.029785372 0.0812903
0000d0 db 3e bd bc 55 2e c0 bd 82 df 09 bd 69 4b 28 be
       -0.02310126 -0.09383837 -0.03366042 -0.16435017
0000e0 3d c7 00 be a7 d1 b5 bc 1c 91 d3 3d de 2a a7 bd
       -0.12576003 -0.022194697 0.10330412 -0.08162473
0000f0 8e 1a 9f bd 2f 38 49 be a8 0b 9f 3d 2b 2d f1 3b
       -0.07768737 -0.19650339 0.07765895 0.007360121
000100 f5 19 22 3e 97 60 c4 3e a8 ba 14 bf fc e7 40 3e
       0.15830214 0.38354942 -0.58097315 0.18838495
000110 ed 78 c1 3e 39 dc 35 bf 1c 6c fa be dc 6e 73 3e
       0.37787572 -0.7103916 -0.48910606 0.23772758
000120 04 63 cd 3e cb 6b b9 be d6 0f 2b bf 7a 1b 85 be
       0.40114605 -0.36215052 -0.6682104 -0.25997525
000130 5c 1a bf be 86 48 a6 3e b8 f7 55 be 54 c4 19 3e
       -0.37324798 0.32477206 -0.20895278 0.150163
000140 ca 4b 6f 3d dd 01 72 bc 7d 9b 7e be 34 8b fe 3e
       0.058421887 -0.014770952 -0.24864002 0.4971558
000150 d8 6f 59 bc e8 6b 9e be 0f 33 b0 be 5b 00 98 be
       -0.0132712945 -0.309417 -0.34413955 -0.2968777
000160 1f fc 80 3d b8 f8 d3 be d1 db cd be b4 8c f8 bc
       0.06298088 -0.41400695 -0.4020677 -0.03034053
000170 e2 48 19 3c 57 85 b4 be 55 68 cf bd 02 7a 1d be
       0.0093557555 -0.3525798 -0.10127322 -0.15378574
000180 86 7b 95 ba 9c 75 79 ba 85 79 7f bb 3a aa fc b9
       -0.0011404611 -0.00095161214 -0.0038982343 -0.00048192014
000190 1c 2a f3 ba d1 f4 7e 3b 5c d7 43 3b 6c bd cb 39
       -0.0018551978 0.0038903246 0.0029883003 0.00038860308
0001a0 a8 f3 10 3b 03 33 37 bb 2c 37 2e 3b a3 04 ff b9
       0.0022117887 -0.002795399 0.0026583178 -0.00048640845
0001b0 9f 77 79 3a fc ae 4e ba 9d b9 50 b9 9c 68 da 39
       0.0009516421 -0.0007884351 -0.00019905572 0.0004165814
0001c0 a3 09 3d 3d 31 7d 07 3d 46 ad 66 be 57 28 03 3f
       0.04615177 0.033078376 -0.22527036 0.5123343
0001d0 1d de 6c bd da ea 28 be 6d 33 9c be 3b 0b ae be
       -0.05782901 -0.16495839 -0.30507985 -0.33992943
0001e0 f8 1b fa 3b b4 e1 cf be 96 0f b6 be e8 b2 22 3c
       0.0076327287 -0.40601885 -0.35558766 0.00993035
0001f0 bb f2 d3 3d 64 46 cd be 51 ea 36 bc 46 fd ae bd
       0.103490315 -0.40092766 -0.011164264 -0.08544402
000200 f2 8b 80 b2 f8 af bf b1 da f4 48 b2 83 d4 34 31
       -1.4964801e-08 -5.578837e-09 -1.1697205e-08 2.6314246e-09
000210 34 5d f5 b1 df 84 14 32 30 c5 8a 32 5c 49 9e 31
       -7.1410344e-09 8.644945e-09 1.6154985e-08 4.606745e-09
000220 3a 79 50 32 5f 2e 38 b2 34 fd 28 31 ea 48 30 31
       1.2134757e-08 -1.0720753e-08 2.4591147e-09 2.5652818e-09
000230 db e0 1e 32 b0 80 ee b2 43 ce 44 31 ba e5 c2 31
       9.247937e-09 -2.7765367e-08 2.8639e-09 5.67226e-09
000240 6a 58 24 be 82 d0 bf 3d ad f0 b9 be f1 cf 3c 3f
       -0.16049352 0.093659416 -0.36316434 0.73754793
000250 8e 6c ba bd d8 bc be be e6 a0 b6 be db ef 0d bf
       -0.091027364 -0.3725345 -0.3566963 -0.55444115
000260 87 f1 6f 3e 8c 06 88 be e9 15 fc be ee 0a f2 3c
       0.23431979 -0.26567495 -0.49235466 0.029546227
000270 2a 16 2b 3d 26 2a 01 bf 7f 08 fe bd 66 a1 26 3e
       0.041769184 -0.5045494 -0.12403964 0.16272506
000280 23 99 4d be bc 04 4e be 42 6c f7 bc 9a 2c c8 3e
       -0.20077948 -0.20118994 -0.030202989 0.39096528
000290 d6 8b 5e bc d7 89 45 be f8 e4 3a be a5 ce 9e be
       -0.013583144 -0.19290863 -0.18251407 -0.31017032
0002a0 cd e0 1f bd 80 1f 34 bd c4 22 44 be 70 5a 9f 3c
       -0.039032746 -0.043975353 -0.19153887 0.019452304
0002b0 07 10 e5 3d e5 b8 ce be ba ba 2b 3e 01 d0 83 bd
       0.111846976 -0.40375438 0.1677045 -0.06436158
0002c0 50 3f 6c 3e bd cc 8f 3e 8f c9 39 bf 4b fd 4e be
       0.23071027 0.2808589 -0.7257318 -0.20213811
0002d0 07 f0 bd 3e ae 97 f9 be 76 b7 14 bf 4c 36 09 3f
       0.3709719 -0.48748535 -0.5809244 0.53598475
0002e0 da cf c0 3e ee 87 c8 be e0 99 0d bf d2 6b 0a bf
       0.37658578 -0.39166206 -0.5531292 -0.5407077
0002f0 77 39 76 bf 9a d6 88 3e f8 9d 04 bf 84 9d 83 3c
       -0.96181434 0.26726228 -0.5180354 0.01606632
000300 5a 03 90 3e 9e 6c c5 3e 39 75 0e bf 65 f1 ca 3e
       0.28127557 0.3855943 -0.5564762 0.39637294
000310 0f b3 a2 3e 23 f7 3a bf 76 9f 3a bf b5 05 fe 3d
       0.31777236 -0.7303335 -0.7289957 0.12403432
000320 5d cd cb 3e fa cd 0f bf ab 6c 51 bf 27 5d f1 be
       0.39805117 -0.5617367 -0.8180644 -0.47141382
000330 0f 80 cf be 47 89 1e bd 2e 31 df be b6 df 55 3d
       -0.40527388 -0.038705137 -0.4359221 0.0522153
000340 e4 4f 53 bc 65 55 aa 3e 31 c8 cb be 6d 69 61 3e
       -0.012897465 0.33268276 -0.3980117 0.22012873
000350 b3 71 d0 3d 78 91 57 be f8 2c 72 be 2f 99 21 bd
       0.101779364 -0.21051586 -0.23649967 -0.039452728
000360 81 22 1e 3e 33 7e 95 be 9e c5 bf be ac 5e 8c bd
       0.1544285 -0.29197845 -0.37455457 -0.06853995
000370 97 a8 da bd d5 95 1a 3d 64 b6 a4 bd 06 24 bb 3d
       -0.10676687 0.037740547 -0.08042601 0.0913773
000380 31 ac 91 b6 ba 41 8b b6 04 1e 3f b6 46 5e 4d 33
       -4.3413825e-06 -4.1501744e-06 -2.847869e-06 4.7816023e-08
000390 0c f5 18 b6 75 2b 24 36 07 1f 55 36 28 bf 17 36
       -2.27924e-06 2.44632e-06 3.1757534e-06 2.261202e-06
0003a0 7f 1b 7e 36 6b 71 ce b6 2d ec 96 34 b1 0c 7c 35
       3.7864954e-06 -6.152482e-06 2.8111518e-07 9.3895784e-07
0003b0 1e 7e 1e 36 de a4 cb b6 6e 32 52 35 61 67 ea 35
       2.3617245e-06 -6.0690645e-06 7.830448e-07 1.7464446e-06
0003c0 39 84 88 bd 29 a5 cb 3d f3 1e c6 be 73 e5 2e 3f
       -0.066658445 0.09943611 -0.38695487 0.6831886
0003d0 22 19 44 be 4c 47 1a be e2 76 7b be a3 a7 c7 be
       -0.19150212 -0.1506626 -0.24557069 -0.38995084
0003e0 56 a7 cb bc dc f2 f0 be 9e 9f c1 be a5 9e b4 3e
       -0.024860065 -0.47060287 -0.3781709 0.35277286
0003f0 00 10 76 3d b6 3e b0 be 8c b5 9d 3d 3b 7c c5 3d
       0.060073853 -0.34422845 0.07700643 0.09642836

cells.1.gcn.convs.1.bias f4 [16]
000000 90 d1 0a bf a7 e8 31 bd 21 91 90 bd 16 77 b2 bd
       -0.54226017 -0.043434765 -0.07058931 -0.0871412
000010 ff b5 8f be 16 a5 d2 be 95 28 b7 3c 2d fe fa bc
       -0.2806854 -0.41141576 0.022358218 -0.030638779
000020 01 ae 1f 3c 4b b1 13 be 71 57 00 bf 85 36 75 be
       0.009746076 -0.144231 -0.50133425 -0.23946579
000030 69 1c 18 be 63 9d 0b bd f2 eb 44 be 4b 2a 48 be
       -0.14854588 -0.034085643 -0.19230631 -0.19547383

cells.1.gcn.convs.1.lin.weight f4 [16, 16]
000000 7b 56 93 39 fa 29 09 3f cc d9 ff 39 96 5f 25 bc
       0.00028102458 0.53579676 0.0004879966 -0.01009359
000010 8f 06 02 3f d7 ce 12 3e 6d ee 91 ba da 9b 3d 3e
       0.5079126 0.14336716 -0.0011133678 0.18516484
000020 1a 16 c3 b1 43 e5 35 bd 8c d4 cd bd 8b 0f 12 3f
       -5.6777596e-09 -0.044408094 -0.10050306 0.57054967
000030 67 55 f6 3e 32 79 1f 3e be d7 56 36 51 42 c4 3d
       0.48112032 0.15573576 3.2014063e-06 0.09582961
000040 6b b9 80 b9 ad d7 0f bf 30 dc f7 b9 64 37 a6 bd
       -0.0002455221 -0.5618847 -0.00047275564 -0.08116034
000050 c5 4c da be 6a 82 80 be 33 cd 2f 3a 90 ce 80 be
       -0.42636696 -0.25099498 0.0006706297 -0.25157595
000060 4b d2 88 32 e0 4f a9 be 7b c1 64 be e3 f4 09 bf
       1.5928114e-08 -0.33068752 -0.22339432 -0.5388929
000070 23 7f 1a bf 57 a4 fa bd 1d a2 95 b6 46 84 d9 be
       -0.60350245 -0.122383766 -4.4594185e-06 -0.4248373
000080 f8 c2 04 39 01 6d 09 bf 61 43 cf 3a c2 f5 87 bd
       0.00012661132 -0.5368195 0.0015812927 -0.066386715
000090 c8 9c cb be 9c e8 3a be 98 a1 a7 b9 e0 36 81 be
       -0.39768052 -0.18252796 -0.0003197312 -0.2523718
0000a0 f1 f7 85 b1 aa 9c 23 be 9d 94 f7 bd 5a 02 08 bf
       -3.898997e-09 -0.15977731 -0.120888926 -0.5312859
0000b0 4e ad 0e bf df 38 d9 bd a2 f9 78 b6 c1 ca 99 be
       -0.5573319 -0.106065504 -3.7100185e-06 -0.300375
0000c0 96 ee 64 b9 39 c9 0d bf 7d 3f df b9 08 c8 ab bd
       -0.00021832655 -0.55385166 -0.00042581177 -0.08387762
0000d0 24 ff d6 be bb e6 7e be 1b b8 05 3a 7f 7f 86 be
       -0.41991532 -0.24892704 0.0005100981 -0.26269147
0000e0 cb 30 37 32 af 8c b9 be 7d 2b 2d be c5 c9 02 bf
       1.0663096e-08 -0.36240146 -0.1691112 -0.51089126
0000f0 80 93 19 bf c1 3d d1 bd 38 5a 2f b5 72 88 d4 be
       -0.5999069 -0.10216857 -6.5323866e-07 -0.4151035
000100 62 6e 12 3b 2f 8e bb 3e 69 9b 8d 39 8a b8 ba bd
       0.0022343625 0.36631915 0.00027009405 -0.09117229
000110 42 13 0c 3f 61 4b e0 bd 87 4a 48 ba 4e b2 01 3e
       0.54716885 -0.109518774 -0.00076405 0.12665674
000120 19 5f 29 31 b1 63 15 be 90 df 8e be 18 96 29 3f
       2.4646793e-09 -0.1458881 -0.2790494 0.6624465
000130 34 06 94 3e 83 4d 7e 3d 49 d1 96 36 fe 61 be 3b
       0.28910983 0.06208564 4.4947124e-06 0.0058100214
000140 a5 f6 d9 38 f2 22 8c 3e 2e 86 4c 39 f0 74 07 be
       0.000103933075 0.2737041 0.00019504942 -0.13228202
000150 96 c9 be 3e fa 14 1e be c6 bd 84 ba 6c 17 56 be
       0.37263173 -0.1543769 -0.0010127358 -0.20907372
000160 39 d5 93 b0 c7 dc c0 be 6c 8c a2 be eb 65 fe 3e
       -1.0756259e-09 -0.3766844 -0.31747758 0.49687132
000170 21 59 7b 3e d1 bf f1 3d ae b6 b1 35 ab ae 76 be
       0.24545719 0.11804164 1.3240694e-06 -0.24090068
000180 7c c3 86 b7 2c a7 f3 be 1b 50 ea 39 1f 81 ba bd
       -1.6065074e-05 -0.4758848 0.0004469164 -0.09106659
000190 98 b1 d4 be 71 44 98 be 20 b0 a6 37 3e b3 17 be
       -0.41541743 -0.29739717 1.9870757e-05 -0.14814469
0001a0 b0 6f 71 b1 e8 4e ed be dd 3c 82 be d0 bc 0f bf
       -3.5133603e-09 -0.46349263 -0.2543706 -0.5614748
0001b0 42 c8 15 bf 4c 67 9c bd 02 27 9e b6 96 8c dd be
       -0.58508694 -0.0763689 -4.713308e-06 -0.4327132
0001c0 03 81 ed bb 6f ca 09 bf 5f 16 29 bc 8a 0b ce bd
       -0.0072480454 -0.53824514 -0.010320275 -0.10060795
0001d0 a9 6e 09 bf e9 84 7d be 19 16 53 ba 66 b2 19 3d
       -0.5368448 -0.24757732 -0.0008052304 0.03752365
0001e0 d6 87 41 b1 3b ae 9a be 68 53 97 3d 36 06 08 bf
       -2.816241e-09 -0.30211052 0.07388955 -0.5313448
0001f0 a8 0d e0 be 1c 29 45 be 7d d7 78 b6 eb f7 00 be
       -0.4376042 -0.19253963 -3.708031e-06 -0.12594573
000200 e7 c8 80 b9 91 9d 14 bf 8f 60 f5 b9 fc 14 cd bd
       -0.00024563746 -0.5805293 -0.00046801983 -0.10013768
000210 55 f1 e5 be 48 6b 7e be 6d ec c4 ba 9c 42 82 be
       -0.44910684 -0.24845612 -0.0015024074 -0.25441444
000220 f0 72 bd 2f c3 72 ba be a0 42 56 be 18 6b 03 bf
       3.4460568e-10 -0.3641568 -0.20923853 -0.5133529
000230 3e ff 1f bf 0b c4 85 bd 76 70 8a b6 4f b3 cc be
       -0.62498844 -0.06531533 -4.1258127e-06 -0.39980552
000240 8d cf da b8 48 6c de be 16 7a 54 b9 7f 25 88 bd
       -0.000104337094 -0.43441987 -0.00020263376 -0.06647777
000250 e8 64 c0 be 19 59 46 be f9 94 f7 39 d0 5d 55 be
       -0.37576985 -0.19369926 0.00047222505 -0.20836568
000260 d9 87 01 30 a9 ed 98 be 25 f4 5a bd 60 00 fc be
       4.712298e-10 -0.2986882 -0.05345549 -0.49219036
000270 e8 6e fd be 0d 1a f6 bd b5 dd 0a b6 8d 62 41 be
       -0.49498677 -0.120166875 -2.0692653e-06 -0.1888525
000280 81 3e 2b 39 8f 56 a2 3e 53 c7 88 39 8a a4 26 bd
       0.00016331115 0.31706664 0.0002608845 -0.04068426
000290 bf 0f ab 3e 70 e5 aa bb 1a 8a 45 b9 d5 5c 19 bd
       0.3341045 -0.0052153394 -0.00018838831 -0.037442047
0002a0 d4 ea 8b 30 70 fb a3 be c1 a5 54 be 40 e1 dd 3e
       1.0180323e-09 -0.3202777 -0.20766355 0.43335915
0002b0 f1 d5 95 3e 3f ea 9b 3d 78 b4 d6 35 06 12 bb bd
       0.29264787 0.07613038 1.5996766e-06 -0.09134297
0002c0 13 69 e5 37 02 c0 7a 3e 8d 61 f0 ba 6d 93 be bd
       2.7347856e-05 0.24487308 -0.0018339619 -0.09305463
0002d0 a6 8f 1b 3f 9b fa 07 3d 94 58 68 3a ab fd 98 3d
       0.60766065 0.03319798 0.0008863297 0.07470258
0002e0 42 00 68 31 d1 6d a2 be 88 d4 93 bd ff 90 27 3f
       3.376059e-09 -0.31724408 -0.072182715 0.6545562
0002f0 3e ff f3 3e 3f 7c 5c 3d eb b3 b9 36 18 24 48 3e
       0.47655672 0.053829428 5.534375e-06 0.19545019
000300 4a e0 16 b9 09 c9 06 bf 21 5f 9f b9 ab a2 c8 bd
       -0.00014388669 -0.52650505 -0.0003039772 -0.097966515
000310 17 a5 d0 be c2 71 5e be 88 c7 70 ba c9 28 63 be
       -0.40750954 -0.21723083 -0.0009185006 -0.22183527
000320 b6 77 5d b1 fe 5a a2 be 42 a8 35 be a7 97 02 bf
       -3.222778e-09 -0.31710047 -0.17739967 -0.51012653
000330 4a 2f 12 bf 82 79 a3 bd c0 62 03 b6 0d 76 85 be
       -0.5710341 -0.0798216 -1.9578001e-06 -0.26066628
000340 2e 4d 01 b9 d4 5e fd be 96 f2 93 ba 13 3f 9a bd
       -0.0001233115 -0.4948641 -0.0011287506 -0.07531562
000350 3b f9 04 bf cc 48 6c be b2 39 f3 b9 cf f5 2a be
       -0.51942796 -0.23074645 -0.00046391558 -0.16695331
000360 17 b1 92 b1 33 9f 40 be 82 d4 2b be 58 38 05 bf
       -4.269292e-09 -0.1881073 -0.16780284 -0.520391
000370 3d 88 14 bf b1 98 c4 bd 2b 11 83 b6 ac 80 b2 be
       -0.58020383 -0.09599436 -3.906103e-06 -0.34863794
000380 b9 6a dd b8 09 1e d3 3e 7d f2 b0 39 e9 d5 5a be
       -0.0001055798 0.41233853 0.00033750004 -0.21370663
000390 f6 76 9d 3e b3 f1 7b be a8 6c f7 b9 fb cd 8d be
       0.30754822 -0.2460392 -0.00047192466 -0.27696213
0003a0 98 73 03 af 46 56 9c be 86 28 ce be f5 4b 24 3f
       -1.1955448e-10 -0.3053457 -0.40265292 0.641784
0003b0 ac 87 56 3e 66 f8 36 3e 34 a2 31 36 8e d5 4a be
       0.20950192 0.17868194 2.646947e-06 -0.19808027
0003c0 69 af 16 b9 3f 80 fc be 82 b3 96 b9 a1 ad 67 bd
       -0.0001437046 -0.49316594 -0.00028743973 -0.05656207
0003d0 a7 d1 cb be 57 8d 38 be 88 c3 af 39 2c a7 20 be
       -0.3980839 -0.18022667 0.00033524283 -0.15688771
0003e0 fc 62 d1 32 eb bf 94 be 9c b5 08 be db eb 01 bf
       2.4375815e-08 -0.29052672 -0.13350528 -0.5075051
0003f0 ee d2 07 bf 2f 66 d4 bd aa 9d b1 b5 dd df a4 be
       -0.5305623 -0.103710525 -1.3233414e-06 -0.32202044
